EfficientNetB7----------------------------------------------------------------
        Layer (type)               Output Shape         Param #
================================================================
            Conv2d-1         [32, 56, 300, 300]           1,512
       BatchNorm2d-2         [32, 56, 300, 300]             112
              SiLU-3         [32, 56, 300, 300]               0
          CNNBlock-4         [32, 56, 300, 300]               0
            Conv2d-5         [32, 56, 300, 300]             504
       BatchNorm2d-6         [32, 56, 300, 300]             112
              SiLU-7         [32, 56, 300, 300]               0
          CNNBlock-8         [32, 56, 300, 300]               0
 AdaptiveAvgPool2d-9             [32, 56, 1, 1]               0
           Conv2d-10             [32, 14, 1, 1]             798
             SiLU-11             [32, 14, 1, 1]               0
           Conv2d-12             [32, 56, 1, 1]             840
          Sigmoid-13             [32, 56, 1, 1]               0
SqueezeExcitation-14         [32, 56, 300, 300]               0
           Conv2d-15         [32, 28, 300, 300]           1,568
      BatchNorm2d-16         [32, 28, 300, 300]              56
InvertedResidualBlock-17         [32, 28, 300, 300]               0
           Conv2d-18         [32, 28, 300, 300]             252
      BatchNorm2d-19         [32, 28, 300, 300]              56
             SiLU-20         [32, 28, 300, 300]               0
         CNNBlock-21         [32, 28, 300, 300]               0
AdaptiveAvgPool2d-22             [32, 28, 1, 1]               0
           Conv2d-23              [32, 7, 1, 1]             203
             SiLU-24              [32, 7, 1, 1]               0
           Conv2d-25             [32, 28, 1, 1]             224
          Sigmoid-26             [32, 28, 1, 1]               0
SqueezeExcitation-27         [32, 28, 300, 300]               0
           Conv2d-28         [32, 28, 300, 300]             784
      BatchNorm2d-29         [32, 28, 300, 300]              56
InvertedResidualBlock-30         [32, 28, 300, 300]               0
           Conv2d-31         [32, 28, 300, 300]             252
      BatchNorm2d-32         [32, 28, 300, 300]              56
             SiLU-33         [32, 28, 300, 300]               0
         CNNBlock-34         [32, 28, 300, 300]               0
AdaptiveAvgPool2d-35             [32, 28, 1, 1]               0
           Conv2d-36              [32, 7, 1, 1]             203
             SiLU-37              [32, 7, 1, 1]               0
           Conv2d-38             [32, 28, 1, 1]             224
          Sigmoid-39             [32, 28, 1, 1]               0
SqueezeExcitation-40         [32, 28, 300, 300]               0
           Conv2d-41         [32, 28, 300, 300]             784
      BatchNorm2d-42         [32, 28, 300, 300]              56
InvertedResidualBlock-43         [32, 28, 300, 300]               0
           Conv2d-44        [32, 168, 300, 300]          42,336
      BatchNorm2d-45        [32, 168, 300, 300]             336
             SiLU-46        [32, 168, 300, 300]               0
         CNNBlock-47        [32, 168, 300, 300]               0
           Conv2d-48        [32, 168, 150, 150]           1,512
      BatchNorm2d-49        [32, 168, 150, 150]             336
             SiLU-50        [32, 168, 150, 150]               0
         CNNBlock-51        [32, 168, 150, 150]               0
AdaptiveAvgPool2d-52            [32, 168, 1, 1]               0
           Conv2d-53              [32, 7, 1, 1]           1,183
             SiLU-54              [32, 7, 1, 1]               0
           Conv2d-55            [32, 168, 1, 1]           1,344
          Sigmoid-56            [32, 168, 1, 1]               0
SqueezeExcitation-57        [32, 168, 150, 150]               0
           Conv2d-58         [32, 44, 150, 150]           7,392
      BatchNorm2d-59         [32, 44, 150, 150]              88
InvertedResidualBlock-60         [32, 44, 150, 150]               0
           Conv2d-61        [32, 264, 150, 150]         104,544
      BatchNorm2d-62        [32, 264, 150, 150]             528
             SiLU-63        [32, 264, 150, 150]               0
         CNNBlock-64        [32, 264, 150, 150]               0
           Conv2d-65        [32, 264, 150, 150]           2,376
      BatchNorm2d-66        [32, 264, 150, 150]             528
             SiLU-67        [32, 264, 150, 150]               0
         CNNBlock-68        [32, 264, 150, 150]               0
AdaptiveAvgPool2d-69            [32, 264, 1, 1]               0
           Conv2d-70             [32, 11, 1, 1]           2,915
             SiLU-71             [32, 11, 1, 1]               0
           Conv2d-72            [32, 264, 1, 1]           3,168
          Sigmoid-73            [32, 264, 1, 1]               0
SqueezeExcitation-74        [32, 264, 150, 150]               0
           Conv2d-75         [32, 44, 150, 150]          11,616
      BatchNorm2d-76         [32, 44, 150, 150]              88
InvertedResidualBlock-77         [32, 44, 150, 150]               0
           Conv2d-78        [32, 264, 150, 150]         104,544
      BatchNorm2d-79        [32, 264, 150, 150]             528
             SiLU-80        [32, 264, 150, 150]               0
         CNNBlock-81        [32, 264, 150, 150]               0
           Conv2d-82        [32, 264, 150, 150]           2,376
      BatchNorm2d-83        [32, 264, 150, 150]             528
             SiLU-84        [32, 264, 150, 150]               0
         CNNBlock-85        [32, 264, 150, 150]               0
AdaptiveAvgPool2d-86            [32, 264, 1, 1]               0
           Conv2d-87             [32, 11, 1, 1]           2,915
             SiLU-88             [32, 11, 1, 1]               0
           Conv2d-89            [32, 264, 1, 1]           3,168
          Sigmoid-90            [32, 264, 1, 1]               0
SqueezeExcitation-91        [32, 264, 150, 150]               0
           Conv2d-92         [32, 44, 150, 150]          11,616
      BatchNorm2d-93         [32, 44, 150, 150]              88
InvertedResidualBlock-94         [32, 44, 150, 150]               0
           Conv2d-95        [32, 264, 150, 150]         104,544
      BatchNorm2d-96        [32, 264, 150, 150]             528
             SiLU-97        [32, 264, 150, 150]               0
         CNNBlock-98        [32, 264, 150, 150]               0
           Conv2d-99        [32, 264, 150, 150]           2,376
     BatchNorm2d-100        [32, 264, 150, 150]             528
            SiLU-101        [32, 264, 150, 150]               0
        CNNBlock-102        [32, 264, 150, 150]               0
AdaptiveAvgPool2d-103            [32, 264, 1, 1]               0
          Conv2d-104             [32, 11, 1, 1]           2,915
            SiLU-105             [32, 11, 1, 1]               0
          Conv2d-106            [32, 264, 1, 1]           3,168
         Sigmoid-107            [32, 264, 1, 1]               0
SqueezeExcitation-108        [32, 264, 150, 150]               0
          Conv2d-109         [32, 44, 150, 150]          11,616
     BatchNorm2d-110         [32, 44, 150, 150]              88
InvertedResidualBlock-111         [32, 44, 150, 150]               0
          Conv2d-112        [32, 264, 150, 150]         104,544
     BatchNorm2d-113        [32, 264, 150, 150]             528
            SiLU-114        [32, 264, 150, 150]               0
        CNNBlock-115        [32, 264, 150, 150]               0
          Conv2d-116        [32, 264, 150, 150]           2,376
     BatchNorm2d-117        [32, 264, 150, 150]             528
            SiLU-118        [32, 264, 150, 150]               0
        CNNBlock-119        [32, 264, 150, 150]               0
AdaptiveAvgPool2d-120            [32, 264, 1, 1]               0
          Conv2d-121             [32, 11, 1, 1]           2,915
            SiLU-122             [32, 11, 1, 1]               0
          Conv2d-123            [32, 264, 1, 1]           3,168
         Sigmoid-124            [32, 264, 1, 1]               0
SqueezeExcitation-125        [32, 264, 150, 150]               0
          Conv2d-126         [32, 44, 150, 150]          11,616
     BatchNorm2d-127         [32, 44, 150, 150]              88
InvertedResidualBlock-128         [32, 44, 150, 150]               0
          Conv2d-129        [32, 264, 150, 150]         104,544
     BatchNorm2d-130        [32, 264, 150, 150]             528
            SiLU-131        [32, 264, 150, 150]               0
        CNNBlock-132        [32, 264, 150, 150]               0
          Conv2d-133        [32, 264, 150, 150]           2,376
     BatchNorm2d-134        [32, 264, 150, 150]             528
            SiLU-135        [32, 264, 150, 150]               0
        CNNBlock-136        [32, 264, 150, 150]               0
AdaptiveAvgPool2d-137            [32, 264, 1, 1]               0
          Conv2d-138             [32, 11, 1, 1]           2,915
            SiLU-139             [32, 11, 1, 1]               0
          Conv2d-140            [32, 264, 1, 1]           3,168
         Sigmoid-141            [32, 264, 1, 1]               0
SqueezeExcitation-142        [32, 264, 150, 150]               0
          Conv2d-143         [32, 44, 150, 150]          11,616
     BatchNorm2d-144         [32, 44, 150, 150]              88
InvertedResidualBlock-145         [32, 44, 150, 150]               0
          Conv2d-146        [32, 264, 150, 150]         104,544
     BatchNorm2d-147        [32, 264, 150, 150]             528
            SiLU-148        [32, 264, 150, 150]               0
        CNNBlock-149        [32, 264, 150, 150]               0
          Conv2d-150          [32, 264, 75, 75]           6,600
     BatchNorm2d-151          [32, 264, 75, 75]             528
            SiLU-152          [32, 264, 75, 75]               0
        CNNBlock-153          [32, 264, 75, 75]               0
AdaptiveAvgPool2d-154            [32, 264, 1, 1]               0
          Conv2d-155             [32, 11, 1, 1]           2,915
            SiLU-156             [32, 11, 1, 1]               0
          Conv2d-157            [32, 264, 1, 1]           3,168
         Sigmoid-158            [32, 264, 1, 1]               0
SqueezeExcitation-159          [32, 264, 75, 75]               0
          Conv2d-160           [32, 72, 75, 75]          19,008
     BatchNorm2d-161           [32, 72, 75, 75]             144
InvertedResidualBlock-162           [32, 72, 75, 75]               0
          Conv2d-163          [32, 432, 75, 75]         279,936
     BatchNorm2d-164          [32, 432, 75, 75]             864
            SiLU-165          [32, 432, 75, 75]               0
        CNNBlock-166          [32, 432, 75, 75]               0
          Conv2d-167          [32, 432, 75, 75]          10,800
     BatchNorm2d-168          [32, 432, 75, 75]             864
            SiLU-169          [32, 432, 75, 75]               0
        CNNBlock-170          [32, 432, 75, 75]               0
AdaptiveAvgPool2d-171            [32, 432, 1, 1]               0
          Conv2d-172             [32, 18, 1, 1]           7,794
            SiLU-173             [32, 18, 1, 1]               0
          Conv2d-174            [32, 432, 1, 1]           8,208
         Sigmoid-175            [32, 432, 1, 1]               0
SqueezeExcitation-176          [32, 432, 75, 75]               0
          Conv2d-177           [32, 72, 75, 75]          31,104
     BatchNorm2d-178           [32, 72, 75, 75]             144
InvertedResidualBlock-179           [32, 72, 75, 75]               0
          Conv2d-180          [32, 432, 75, 75]         279,936
     BatchNorm2d-181          [32, 432, 75, 75]             864
            SiLU-182          [32, 432, 75, 75]               0
        CNNBlock-183          [32, 432, 75, 75]               0
          Conv2d-184          [32, 432, 75, 75]          10,800
     BatchNorm2d-185          [32, 432, 75, 75]             864
            SiLU-186          [32, 432, 75, 75]               0
        CNNBlock-187          [32, 432, 75, 75]               0
AdaptiveAvgPool2d-188            [32, 432, 1, 1]               0
          Conv2d-189             [32, 18, 1, 1]           7,794
            SiLU-190             [32, 18, 1, 1]               0
          Conv2d-191            [32, 432, 1, 1]           8,208
         Sigmoid-192            [32, 432, 1, 1]               0
SqueezeExcitation-193          [32, 432, 75, 75]               0
          Conv2d-194           [32, 72, 75, 75]          31,104
     BatchNorm2d-195           [32, 72, 75, 75]             144
InvertedResidualBlock-196           [32, 72, 75, 75]               0
          Conv2d-197          [32, 432, 75, 75]         279,936
     BatchNorm2d-198          [32, 432, 75, 75]             864
            SiLU-199          [32, 432, 75, 75]               0
        CNNBlock-200          [32, 432, 75, 75]               0
          Conv2d-201          [32, 432, 75, 75]          10,800
     BatchNorm2d-202          [32, 432, 75, 75]             864
            SiLU-203          [32, 432, 75, 75]               0
        CNNBlock-204          [32, 432, 75, 75]               0
AdaptiveAvgPool2d-205            [32, 432, 1, 1]               0
          Conv2d-206             [32, 18, 1, 1]           7,794
            SiLU-207             [32, 18, 1, 1]               0
          Conv2d-208            [32, 432, 1, 1]           8,208
         Sigmoid-209            [32, 432, 1, 1]               0
SqueezeExcitation-210          [32, 432, 75, 75]               0
          Conv2d-211           [32, 72, 75, 75]          31,104
     BatchNorm2d-212           [32, 72, 75, 75]             144
InvertedResidualBlock-213           [32, 72, 75, 75]               0
          Conv2d-214          [32, 432, 75, 75]         279,936
     BatchNorm2d-215          [32, 432, 75, 75]             864
            SiLU-216          [32, 432, 75, 75]               0
        CNNBlock-217          [32, 432, 75, 75]               0
          Conv2d-218          [32, 432, 75, 75]          10,800
     BatchNorm2d-219          [32, 432, 75, 75]             864
            SiLU-220          [32, 432, 75, 75]               0
        CNNBlock-221          [32, 432, 75, 75]               0
AdaptiveAvgPool2d-222            [32, 432, 1, 1]               0
          Conv2d-223             [32, 18, 1, 1]           7,794
            SiLU-224             [32, 18, 1, 1]               0
          Conv2d-225            [32, 432, 1, 1]           8,208
         Sigmoid-226            [32, 432, 1, 1]               0
SqueezeExcitation-227          [32, 432, 75, 75]               0
          Conv2d-228           [32, 72, 75, 75]          31,104
     BatchNorm2d-229           [32, 72, 75, 75]             144
InvertedResidualBlock-230           [32, 72, 75, 75]               0
          Conv2d-231          [32, 432, 75, 75]         279,936
     BatchNorm2d-232          [32, 432, 75, 75]             864
            SiLU-233          [32, 432, 75, 75]               0
        CNNBlock-234          [32, 432, 75, 75]               0
          Conv2d-235          [32, 432, 75, 75]          10,800
     BatchNorm2d-236          [32, 432, 75, 75]             864
            SiLU-237          [32, 432, 75, 75]               0
        CNNBlock-238          [32, 432, 75, 75]               0
AdaptiveAvgPool2d-239            [32, 432, 1, 1]               0
          Conv2d-240             [32, 18, 1, 1]           7,794
            SiLU-241             [32, 18, 1, 1]               0
          Conv2d-242            [32, 432, 1, 1]           8,208
         Sigmoid-243            [32, 432, 1, 1]               0
SqueezeExcitation-244          [32, 432, 75, 75]               0
          Conv2d-245           [32, 72, 75, 75]          31,104
     BatchNorm2d-246           [32, 72, 75, 75]             144
InvertedResidualBlock-247           [32, 72, 75, 75]               0
          Conv2d-248          [32, 432, 75, 75]         279,936
     BatchNorm2d-249          [32, 432, 75, 75]             864
            SiLU-250          [32, 432, 75, 75]               0
        CNNBlock-251          [32, 432, 75, 75]               0
          Conv2d-252          [32, 432, 38, 38]           3,888
     BatchNorm2d-253          [32, 432, 38, 38]             864
            SiLU-254          [32, 432, 38, 38]               0
        CNNBlock-255          [32, 432, 38, 38]               0
AdaptiveAvgPool2d-256            [32, 432, 1, 1]               0
          Conv2d-257             [32, 18, 1, 1]           7,794
            SiLU-258             [32, 18, 1, 1]               0
          Conv2d-259            [32, 432, 1, 1]           8,208
         Sigmoid-260            [32, 432, 1, 1]               0
SqueezeExcitation-261          [32, 432, 38, 38]               0
          Conv2d-262          [32, 144, 38, 38]          62,208
     BatchNorm2d-263          [32, 144, 38, 38]             288
InvertedResidualBlock-264          [32, 144, 38, 38]               0
          Conv2d-265          [32, 864, 38, 38]       1,119,744
     BatchNorm2d-266          [32, 864, 38, 38]           1,728
            SiLU-267          [32, 864, 38, 38]               0
        CNNBlock-268          [32, 864, 38, 38]               0
          Conv2d-269          [32, 864, 38, 38]           7,776
     BatchNorm2d-270          [32, 864, 38, 38]           1,728
            SiLU-271          [32, 864, 38, 38]               0
        CNNBlock-272          [32, 864, 38, 38]               0
AdaptiveAvgPool2d-273            [32, 864, 1, 1]               0
          Conv2d-274             [32, 36, 1, 1]          31,140
            SiLU-275             [32, 36, 1, 1]               0
          Conv2d-276            [32, 864, 1, 1]          31,968
         Sigmoid-277            [32, 864, 1, 1]               0
SqueezeExcitation-278          [32, 864, 38, 38]               0
          Conv2d-279          [32, 144, 38, 38]         124,416
     BatchNorm2d-280          [32, 144, 38, 38]             288
InvertedResidualBlock-281          [32, 144, 38, 38]               0
          Conv2d-282          [32, 864, 38, 38]       1,119,744
     BatchNorm2d-283          [32, 864, 38, 38]           1,728
            SiLU-284          [32, 864, 38, 38]               0
        CNNBlock-285          [32, 864, 38, 38]               0
          Conv2d-286          [32, 864, 38, 38]           7,776
     BatchNorm2d-287          [32, 864, 38, 38]           1,728
            SiLU-288          [32, 864, 38, 38]               0
        CNNBlock-289          [32, 864, 38, 38]               0
AdaptiveAvgPool2d-290            [32, 864, 1, 1]               0
          Conv2d-291             [32, 36, 1, 1]          31,140
            SiLU-292             [32, 36, 1, 1]               0
          Conv2d-293            [32, 864, 1, 1]          31,968
         Sigmoid-294            [32, 864, 1, 1]               0
SqueezeExcitation-295          [32, 864, 38, 38]               0
          Conv2d-296          [32, 144, 38, 38]         124,416
     BatchNorm2d-297          [32, 144, 38, 38]             288
InvertedResidualBlock-298          [32, 144, 38, 38]               0
          Conv2d-299          [32, 864, 38, 38]       1,119,744
     BatchNorm2d-300          [32, 864, 38, 38]           1,728
            SiLU-301          [32, 864, 38, 38]               0
        CNNBlock-302          [32, 864, 38, 38]               0
          Conv2d-303          [32, 864, 38, 38]           7,776
     BatchNorm2d-304          [32, 864, 38, 38]           1,728
            SiLU-305          [32, 864, 38, 38]               0
        CNNBlock-306          [32, 864, 38, 38]               0
AdaptiveAvgPool2d-307            [32, 864, 1, 1]               0
          Conv2d-308             [32, 36, 1, 1]          31,140
            SiLU-309             [32, 36, 1, 1]               0
          Conv2d-310            [32, 864, 1, 1]          31,968
         Sigmoid-311            [32, 864, 1, 1]               0
SqueezeExcitation-312          [32, 864, 38, 38]               0
          Conv2d-313          [32, 144, 38, 38]         124,416
     BatchNorm2d-314          [32, 144, 38, 38]             288
InvertedResidualBlock-315          [32, 144, 38, 38]               0
          Conv2d-316          [32, 864, 38, 38]       1,119,744
     BatchNorm2d-317          [32, 864, 38, 38]           1,728
            SiLU-318          [32, 864, 38, 38]               0
        CNNBlock-319          [32, 864, 38, 38]               0
          Conv2d-320          [32, 864, 38, 38]           7,776
     BatchNorm2d-321          [32, 864, 38, 38]           1,728
            SiLU-322          [32, 864, 38, 38]               0
        CNNBlock-323          [32, 864, 38, 38]               0
AdaptiveAvgPool2d-324            [32, 864, 1, 1]               0
          Conv2d-325             [32, 36, 1, 1]          31,140
            SiLU-326             [32, 36, 1, 1]               0
          Conv2d-327            [32, 864, 1, 1]          31,968
         Sigmoid-328            [32, 864, 1, 1]               0
SqueezeExcitation-329          [32, 864, 38, 38]               0
          Conv2d-330          [32, 144, 38, 38]         124,416
     BatchNorm2d-331          [32, 144, 38, 38]             288
InvertedResidualBlock-332          [32, 144, 38, 38]               0
          Conv2d-333          [32, 864, 38, 38]       1,119,744
     BatchNorm2d-334          [32, 864, 38, 38]           1,728
            SiLU-335          [32, 864, 38, 38]               0
        CNNBlock-336          [32, 864, 38, 38]               0
          Conv2d-337          [32, 864, 38, 38]           7,776
     BatchNorm2d-338          [32, 864, 38, 38]           1,728
            SiLU-339          [32, 864, 38, 38]               0
        CNNBlock-340          [32, 864, 38, 38]               0
AdaptiveAvgPool2d-341            [32, 864, 1, 1]               0
          Conv2d-342             [32, 36, 1, 1]          31,140
            SiLU-343             [32, 36, 1, 1]               0
          Conv2d-344            [32, 864, 1, 1]          31,968
         Sigmoid-345            [32, 864, 1, 1]               0
SqueezeExcitation-346          [32, 864, 38, 38]               0
          Conv2d-347          [32, 144, 38, 38]         124,416
     BatchNorm2d-348          [32, 144, 38, 38]             288
InvertedResidualBlock-349          [32, 144, 38, 38]               0
          Conv2d-350          [32, 864, 38, 38]       1,119,744
     BatchNorm2d-351          [32, 864, 38, 38]           1,728
            SiLU-352          [32, 864, 38, 38]               0
        CNNBlock-353          [32, 864, 38, 38]               0
          Conv2d-354          [32, 864, 38, 38]           7,776
     BatchNorm2d-355          [32, 864, 38, 38]           1,728
            SiLU-356          [32, 864, 38, 38]               0
        CNNBlock-357          [32, 864, 38, 38]               0
AdaptiveAvgPool2d-358            [32, 864, 1, 1]               0
          Conv2d-359             [32, 36, 1, 1]          31,140
            SiLU-360             [32, 36, 1, 1]               0
          Conv2d-361            [32, 864, 1, 1]          31,968
         Sigmoid-362            [32, 864, 1, 1]               0
SqueezeExcitation-363          [32, 864, 38, 38]               0
          Conv2d-364          [32, 144, 38, 38]         124,416
     BatchNorm2d-365          [32, 144, 38, 38]             288
InvertedResidualBlock-366          [32, 144, 38, 38]               0
          Conv2d-367          [32, 864, 38, 38]       1,119,744
     BatchNorm2d-368          [32, 864, 38, 38]           1,728
            SiLU-369          [32, 864, 38, 38]               0
        CNNBlock-370          [32, 864, 38, 38]               0
          Conv2d-371          [32, 864, 38, 38]           7,776
     BatchNorm2d-372          [32, 864, 38, 38]           1,728
            SiLU-373          [32, 864, 38, 38]               0
        CNNBlock-374          [32, 864, 38, 38]               0
AdaptiveAvgPool2d-375            [32, 864, 1, 1]               0
          Conv2d-376             [32, 36, 1, 1]          31,140
            SiLU-377             [32, 36, 1, 1]               0
          Conv2d-378            [32, 864, 1, 1]          31,968
         Sigmoid-379            [32, 864, 1, 1]               0
SqueezeExcitation-380          [32, 864, 38, 38]               0
          Conv2d-381          [32, 144, 38, 38]         124,416
     BatchNorm2d-382          [32, 144, 38, 38]             288
InvertedResidualBlock-383          [32, 144, 38, 38]               0
          Conv2d-384          [32, 864, 38, 38]       1,119,744
     BatchNorm2d-385          [32, 864, 38, 38]           1,728
            SiLU-386          [32, 864, 38, 38]               0
        CNNBlock-387          [32, 864, 38, 38]               0
          Conv2d-388          [32, 864, 38, 38]           7,776
     BatchNorm2d-389          [32, 864, 38, 38]           1,728
            SiLU-390          [32, 864, 38, 38]               0
        CNNBlock-391          [32, 864, 38, 38]               0
AdaptiveAvgPool2d-392            [32, 864, 1, 1]               0
          Conv2d-393             [32, 36, 1, 1]          31,140
            SiLU-394             [32, 36, 1, 1]               0
          Conv2d-395            [32, 864, 1, 1]          31,968
         Sigmoid-396            [32, 864, 1, 1]               0
SqueezeExcitation-397          [32, 864, 38, 38]               0
          Conv2d-398          [32, 144, 38, 38]         124,416
     BatchNorm2d-399          [32, 144, 38, 38]             288
InvertedResidualBlock-400          [32, 144, 38, 38]               0
          Conv2d-401          [32, 864, 38, 38]       1,119,744
     BatchNorm2d-402          [32, 864, 38, 38]           1,728
            SiLU-403          [32, 864, 38, 38]               0
        CNNBlock-404          [32, 864, 38, 38]               0
          Conv2d-405          [32, 864, 38, 38]          21,600
     BatchNorm2d-406          [32, 864, 38, 38]           1,728
            SiLU-407          [32, 864, 38, 38]               0
        CNNBlock-408          [32, 864, 38, 38]               0
AdaptiveAvgPool2d-409            [32, 864, 1, 1]               0
          Conv2d-410             [32, 36, 1, 1]          31,140
            SiLU-411             [32, 36, 1, 1]               0
          Conv2d-412            [32, 864, 1, 1]          31,968
         Sigmoid-413            [32, 864, 1, 1]               0
SqueezeExcitation-414          [32, 864, 38, 38]               0
          Conv2d-415          [32, 200, 38, 38]         172,800
     BatchNorm2d-416          [32, 200, 38, 38]             400
InvertedResidualBlock-417          [32, 200, 38, 38]               0
          Conv2d-418         [32, 1200, 38, 38]       2,160,000
     BatchNorm2d-419         [32, 1200, 38, 38]           2,400
            SiLU-420         [32, 1200, 38, 38]               0
        CNNBlock-421         [32, 1200, 38, 38]               0
          Conv2d-422         [32, 1200, 38, 38]          30,000
     BatchNorm2d-423         [32, 1200, 38, 38]           2,400
            SiLU-424         [32, 1200, 38, 38]               0
        CNNBlock-425         [32, 1200, 38, 38]               0
AdaptiveAvgPool2d-426           [32, 1200, 1, 1]               0
          Conv2d-427             [32, 50, 1, 1]          60,050
            SiLU-428             [32, 50, 1, 1]               0
          Conv2d-429           [32, 1200, 1, 1]          61,200
         Sigmoid-430           [32, 1200, 1, 1]               0
SqueezeExcitation-431         [32, 1200, 38, 38]               0
          Conv2d-432          [32, 200, 38, 38]         240,000
     BatchNorm2d-433          [32, 200, 38, 38]             400
InvertedResidualBlock-434          [32, 200, 38, 38]               0
          Conv2d-435         [32, 1200, 38, 38]       2,160,000
     BatchNorm2d-436         [32, 1200, 38, 38]           2,400
            SiLU-437         [32, 1200, 38, 38]               0
        CNNBlock-438         [32, 1200, 38, 38]               0
          Conv2d-439         [32, 1200, 38, 38]          30,000
     BatchNorm2d-440         [32, 1200, 38, 38]           2,400
            SiLU-441         [32, 1200, 38, 38]               0
        CNNBlock-442         [32, 1200, 38, 38]               0
AdaptiveAvgPool2d-443           [32, 1200, 1, 1]               0
          Conv2d-444             [32, 50, 1, 1]          60,050
            SiLU-445             [32, 50, 1, 1]               0
          Conv2d-446           [32, 1200, 1, 1]          61,200
         Sigmoid-447           [32, 1200, 1, 1]               0
SqueezeExcitation-448         [32, 1200, 38, 38]               0
          Conv2d-449          [32, 200, 38, 38]         240,000
     BatchNorm2d-450          [32, 200, 38, 38]             400
InvertedResidualBlock-451          [32, 200, 38, 38]               0
          Conv2d-452         [32, 1200, 38, 38]       2,160,000
     BatchNorm2d-453         [32, 1200, 38, 38]           2,400
            SiLU-454         [32, 1200, 38, 38]               0
        CNNBlock-455         [32, 1200, 38, 38]               0
          Conv2d-456         [32, 1200, 38, 38]          30,000
     BatchNorm2d-457         [32, 1200, 38, 38]           2,400
            SiLU-458         [32, 1200, 38, 38]               0
        CNNBlock-459         [32, 1200, 38, 38]               0
AdaptiveAvgPool2d-460           [32, 1200, 1, 1]               0
          Conv2d-461             [32, 50, 1, 1]          60,050
            SiLU-462             [32, 50, 1, 1]               0
          Conv2d-463           [32, 1200, 1, 1]          61,200
         Sigmoid-464           [32, 1200, 1, 1]               0
SqueezeExcitation-465         [32, 1200, 38, 38]               0
          Conv2d-466          [32, 200, 38, 38]         240,000
     BatchNorm2d-467          [32, 200, 38, 38]             400
InvertedResidualBlock-468          [32, 200, 38, 38]               0
          Conv2d-469         [32, 1200, 38, 38]       2,160,000
     BatchNorm2d-470         [32, 1200, 38, 38]           2,400
            SiLU-471         [32, 1200, 38, 38]               0
        CNNBlock-472         [32, 1200, 38, 38]               0
          Conv2d-473         [32, 1200, 38, 38]          30,000
     BatchNorm2d-474         [32, 1200, 38, 38]           2,400
            SiLU-475         [32, 1200, 38, 38]               0
        CNNBlock-476         [32, 1200, 38, 38]               0
AdaptiveAvgPool2d-477           [32, 1200, 1, 1]               0
          Conv2d-478             [32, 50, 1, 1]          60,050
            SiLU-479             [32, 50, 1, 1]               0
          Conv2d-480           [32, 1200, 1, 1]          61,200
         Sigmoid-481           [32, 1200, 1, 1]               0
SqueezeExcitation-482         [32, 1200, 38, 38]               0
          Conv2d-483          [32, 200, 38, 38]         240,000
     BatchNorm2d-484          [32, 200, 38, 38]             400
InvertedResidualBlock-485          [32, 200, 38, 38]               0
          Conv2d-486         [32, 1200, 38, 38]       2,160,000
     BatchNorm2d-487         [32, 1200, 38, 38]           2,400
            SiLU-488         [32, 1200, 38, 38]               0
        CNNBlock-489         [32, 1200, 38, 38]               0
          Conv2d-490         [32, 1200, 38, 38]          30,000
     BatchNorm2d-491         [32, 1200, 38, 38]           2,400
            SiLU-492         [32, 1200, 38, 38]               0
        CNNBlock-493         [32, 1200, 38, 38]               0
AdaptiveAvgPool2d-494           [32, 1200, 1, 1]               0
          Conv2d-495             [32, 50, 1, 1]          60,050
            SiLU-496             [32, 50, 1, 1]               0
          Conv2d-497           [32, 1200, 1, 1]          61,200
         Sigmoid-498           [32, 1200, 1, 1]               0
SqueezeExcitation-499         [32, 1200, 38, 38]               0
          Conv2d-500          [32, 200, 38, 38]         240,000
     BatchNorm2d-501          [32, 200, 38, 38]             400
InvertedResidualBlock-502          [32, 200, 38, 38]               0
          Conv2d-503         [32, 1200, 38, 38]       2,160,000
     BatchNorm2d-504         [32, 1200, 38, 38]           2,400
            SiLU-505         [32, 1200, 38, 38]               0
        CNNBlock-506         [32, 1200, 38, 38]               0
          Conv2d-507         [32, 1200, 38, 38]          30,000
     BatchNorm2d-508         [32, 1200, 38, 38]           2,400
            SiLU-509         [32, 1200, 38, 38]               0
        CNNBlock-510         [32, 1200, 38, 38]               0
AdaptiveAvgPool2d-511           [32, 1200, 1, 1]               0
          Conv2d-512             [32, 50, 1, 1]          60,050
            SiLU-513             [32, 50, 1, 1]               0
          Conv2d-514           [32, 1200, 1, 1]          61,200
         Sigmoid-515           [32, 1200, 1, 1]               0
SqueezeExcitation-516         [32, 1200, 38, 38]               0
          Conv2d-517          [32, 200, 38, 38]         240,000
     BatchNorm2d-518          [32, 200, 38, 38]             400
InvertedResidualBlock-519          [32, 200, 38, 38]               0
          Conv2d-520         [32, 1200, 38, 38]       2,160,000
     BatchNorm2d-521         [32, 1200, 38, 38]           2,400
            SiLU-522         [32, 1200, 38, 38]               0
        CNNBlock-523         [32, 1200, 38, 38]               0
          Conv2d-524         [32, 1200, 38, 38]          30,000
     BatchNorm2d-525         [32, 1200, 38, 38]           2,400
            SiLU-526         [32, 1200, 38, 38]               0
        CNNBlock-527         [32, 1200, 38, 38]               0
AdaptiveAvgPool2d-528           [32, 1200, 1, 1]               0
          Conv2d-529             [32, 50, 1, 1]          60,050
            SiLU-530             [32, 50, 1, 1]               0
          Conv2d-531           [32, 1200, 1, 1]          61,200
         Sigmoid-532           [32, 1200, 1, 1]               0
SqueezeExcitation-533         [32, 1200, 38, 38]               0
          Conv2d-534          [32, 200, 38, 38]         240,000
     BatchNorm2d-535          [32, 200, 38, 38]             400
InvertedResidualBlock-536          [32, 200, 38, 38]               0
          Conv2d-537         [32, 1200, 38, 38]       2,160,000
     BatchNorm2d-538         [32, 1200, 38, 38]           2,400
            SiLU-539         [32, 1200, 38, 38]               0
        CNNBlock-540         [32, 1200, 38, 38]               0
          Conv2d-541         [32, 1200, 38, 38]          30,000
     BatchNorm2d-542         [32, 1200, 38, 38]           2,400
            SiLU-543         [32, 1200, 38, 38]               0
        CNNBlock-544         [32, 1200, 38, 38]               0
AdaptiveAvgPool2d-545           [32, 1200, 1, 1]               0
          Conv2d-546             [32, 50, 1, 1]          60,050
            SiLU-547             [32, 50, 1, 1]               0
          Conv2d-548           [32, 1200, 1, 1]          61,200
         Sigmoid-549           [32, 1200, 1, 1]               0
SqueezeExcitation-550         [32, 1200, 38, 38]               0
          Conv2d-551          [32, 200, 38, 38]         240,000
     BatchNorm2d-552          [32, 200, 38, 38]             400
InvertedResidualBlock-553          [32, 200, 38, 38]               0
          Conv2d-554         [32, 1200, 38, 38]       2,160,000
     BatchNorm2d-555         [32, 1200, 38, 38]           2,400
            SiLU-556         [32, 1200, 38, 38]               0
        CNNBlock-557         [32, 1200, 38, 38]               0
          Conv2d-558         [32, 1200, 19, 19]          30,000
     BatchNorm2d-559         [32, 1200, 19, 19]           2,400
            SiLU-560         [32, 1200, 19, 19]               0
        CNNBlock-561         [32, 1200, 19, 19]               0
AdaptiveAvgPool2d-562           [32, 1200, 1, 1]               0
          Conv2d-563             [32, 50, 1, 1]          60,050
            SiLU-564             [32, 50, 1, 1]               0
          Conv2d-565           [32, 1200, 1, 1]          61,200
         Sigmoid-566           [32, 1200, 1, 1]               0
SqueezeExcitation-567         [32, 1200, 19, 19]               0
          Conv2d-568          [32, 340, 19, 19]         408,000
     BatchNorm2d-569          [32, 340, 19, 19]             680
InvertedResidualBlock-570          [32, 340, 19, 19]               0
          Conv2d-571         [32, 2040, 19, 19]       6,242,400
     BatchNorm2d-572         [32, 2040, 19, 19]           4,080
            SiLU-573         [32, 2040, 19, 19]               0
        CNNBlock-574         [32, 2040, 19, 19]               0
          Conv2d-575         [32, 2040, 19, 19]          51,000
     BatchNorm2d-576         [32, 2040, 19, 19]           4,080
            SiLU-577         [32, 2040, 19, 19]               0
        CNNBlock-578         [32, 2040, 19, 19]               0
AdaptiveAvgPool2d-579           [32, 2040, 1, 1]               0
          Conv2d-580             [32, 85, 1, 1]         173,485
            SiLU-581             [32, 85, 1, 1]               0
          Conv2d-582           [32, 2040, 1, 1]         175,440
         Sigmoid-583           [32, 2040, 1, 1]               0
SqueezeExcitation-584         [32, 2040, 19, 19]               0
          Conv2d-585          [32, 340, 19, 19]         693,600
     BatchNorm2d-586          [32, 340, 19, 19]             680
InvertedResidualBlock-587          [32, 340, 19, 19]               0
          Conv2d-588         [32, 2040, 19, 19]       6,242,400
     BatchNorm2d-589         [32, 2040, 19, 19]           4,080
            SiLU-590         [32, 2040, 19, 19]               0
        CNNBlock-591         [32, 2040, 19, 19]               0
          Conv2d-592         [32, 2040, 19, 19]          51,000
     BatchNorm2d-593         [32, 2040, 19, 19]           4,080
            SiLU-594         [32, 2040, 19, 19]               0
        CNNBlock-595         [32, 2040, 19, 19]               0
AdaptiveAvgPool2d-596           [32, 2040, 1, 1]               0
          Conv2d-597             [32, 85, 1, 1]         173,485
            SiLU-598             [32, 85, 1, 1]               0
          Conv2d-599           [32, 2040, 1, 1]         175,440
         Sigmoid-600           [32, 2040, 1, 1]               0
SqueezeExcitation-601         [32, 2040, 19, 19]               0
          Conv2d-602          [32, 340, 19, 19]         693,600
     BatchNorm2d-603          [32, 340, 19, 19]             680
InvertedResidualBlock-604          [32, 340, 19, 19]               0
          Conv2d-605         [32, 2040, 19, 19]       6,242,400
     BatchNorm2d-606         [32, 2040, 19, 19]           4,080
            SiLU-607         [32, 2040, 19, 19]               0
        CNNBlock-608         [32, 2040, 19, 19]               0
          Conv2d-609         [32, 2040, 19, 19]          51,000
     BatchNorm2d-610         [32, 2040, 19, 19]           4,080
            SiLU-611         [32, 2040, 19, 19]               0
        CNNBlock-612         [32, 2040, 19, 19]               0
AdaptiveAvgPool2d-613           [32, 2040, 1, 1]               0
          Conv2d-614             [32, 85, 1, 1]         173,485
            SiLU-615             [32, 85, 1, 1]               0
          Conv2d-616           [32, 2040, 1, 1]         175,440
         Sigmoid-617           [32, 2040, 1, 1]               0
SqueezeExcitation-618         [32, 2040, 19, 19]               0
          Conv2d-619          [32, 340, 19, 19]         693,600
     BatchNorm2d-620          [32, 340, 19, 19]             680
InvertedResidualBlock-621          [32, 340, 19, 19]               0
          Conv2d-622         [32, 2040, 19, 19]       6,242,400
     BatchNorm2d-623         [32, 2040, 19, 19]           4,080
            SiLU-624         [32, 2040, 19, 19]               0
        CNNBlock-625         [32, 2040, 19, 19]               0
          Conv2d-626         [32, 2040, 19, 19]          51,000
     BatchNorm2d-627         [32, 2040, 19, 19]           4,080
            SiLU-628         [32, 2040, 19, 19]               0
        CNNBlock-629         [32, 2040, 19, 19]               0
AdaptiveAvgPool2d-630           [32, 2040, 1, 1]               0
          Conv2d-631             [32, 85, 1, 1]         173,485
            SiLU-632             [32, 85, 1, 1]               0
          Conv2d-633           [32, 2040, 1, 1]         175,440
         Sigmoid-634           [32, 2040, 1, 1]               0
SqueezeExcitation-635         [32, 2040, 19, 19]               0
          Conv2d-636          [32, 340, 19, 19]         693,600
     BatchNorm2d-637          [32, 340, 19, 19]             680
InvertedResidualBlock-638          [32, 340, 19, 19]               0
          Conv2d-639         [32, 2040, 19, 19]       6,242,400
     BatchNorm2d-640         [32, 2040, 19, 19]           4,080
            SiLU-641         [32, 2040, 19, 19]               0
        CNNBlock-642         [32, 2040, 19, 19]               0
          Conv2d-643         [32, 2040, 19, 19]          51,000
     BatchNorm2d-644         [32, 2040, 19, 19]           4,080
            SiLU-645         [32, 2040, 19, 19]               0
        CNNBlock-646         [32, 2040, 19, 19]               0
AdaptiveAvgPool2d-647           [32, 2040, 1, 1]               0
          Conv2d-648             [32, 85, 1, 1]         173,485
            SiLU-649             [32, 85, 1, 1]               0
          Conv2d-650           [32, 2040, 1, 1]         175,440
         Sigmoid-651           [32, 2040, 1, 1]               0
SqueezeExcitation-652         [32, 2040, 19, 19]               0
          Conv2d-653          [32, 340, 19, 19]         693,600
     BatchNorm2d-654          [32, 340, 19, 19]             680
InvertedResidualBlock-655          [32, 340, 19, 19]               0
          Conv2d-656         [32, 2040, 19, 19]       6,242,400
     BatchNorm2d-657         [32, 2040, 19, 19]           4,080
            SiLU-658         [32, 2040, 19, 19]               0
        CNNBlock-659         [32, 2040, 19, 19]               0
          Conv2d-660         [32, 2040, 19, 19]          51,000
     BatchNorm2d-661         [32, 2040, 19, 19]           4,080
            SiLU-662         [32, 2040, 19, 19]               0
        CNNBlock-663         [32, 2040, 19, 19]               0
AdaptiveAvgPool2d-664           [32, 2040, 1, 1]               0
          Conv2d-665             [32, 85, 1, 1]         173,485
            SiLU-666             [32, 85, 1, 1]               0
          Conv2d-667           [32, 2040, 1, 1]         175,440
         Sigmoid-668           [32, 2040, 1, 1]               0
SqueezeExcitation-669         [32, 2040, 19, 19]               0
          Conv2d-670          [32, 340, 19, 19]         693,600
     BatchNorm2d-671          [32, 340, 19, 19]             680
InvertedResidualBlock-672          [32, 340, 19, 19]               0
          Conv2d-673         [32, 2040, 19, 19]       6,242,400
     BatchNorm2d-674         [32, 2040, 19, 19]           4,080
            SiLU-675         [32, 2040, 19, 19]               0
        CNNBlock-676         [32, 2040, 19, 19]               0
          Conv2d-677         [32, 2040, 19, 19]          51,000
     BatchNorm2d-678         [32, 2040, 19, 19]           4,080
            SiLU-679         [32, 2040, 19, 19]               0
        CNNBlock-680         [32, 2040, 19, 19]               0
AdaptiveAvgPool2d-681           [32, 2040, 1, 1]               0
          Conv2d-682             [32, 85, 1, 1]         173,485
            SiLU-683             [32, 85, 1, 1]               0
          Conv2d-684           [32, 2040, 1, 1]         175,440
         Sigmoid-685           [32, 2040, 1, 1]               0
SqueezeExcitation-686         [32, 2040, 19, 19]               0
          Conv2d-687          [32, 340, 19, 19]         693,600
     BatchNorm2d-688          [32, 340, 19, 19]             680
InvertedResidualBlock-689          [32, 340, 19, 19]               0
          Conv2d-690         [32, 2040, 19, 19]       6,242,400
     BatchNorm2d-691         [32, 2040, 19, 19]           4,080
            SiLU-692         [32, 2040, 19, 19]               0
        CNNBlock-693         [32, 2040, 19, 19]               0
          Conv2d-694         [32, 2040, 19, 19]          51,000
     BatchNorm2d-695         [32, 2040, 19, 19]           4,080
            SiLU-696         [32, 2040, 19, 19]               0
        CNNBlock-697         [32, 2040, 19, 19]               0
AdaptiveAvgPool2d-698           [32, 2040, 1, 1]               0
          Conv2d-699             [32, 85, 1, 1]         173,485
            SiLU-700             [32, 85, 1, 1]               0
          Conv2d-701           [32, 2040, 1, 1]         175,440
         Sigmoid-702           [32, 2040, 1, 1]               0
SqueezeExcitation-703         [32, 2040, 19, 19]               0
          Conv2d-704          [32, 340, 19, 19]         693,600
     BatchNorm2d-705          [32, 340, 19, 19]             680
InvertedResidualBlock-706          [32, 340, 19, 19]               0
          Conv2d-707         [32, 2040, 19, 19]       6,242,400
     BatchNorm2d-708         [32, 2040, 19, 19]           4,080
            SiLU-709         [32, 2040, 19, 19]               0
        CNNBlock-710         [32, 2040, 19, 19]               0
          Conv2d-711         [32, 2040, 19, 19]          51,000
     BatchNorm2d-712         [32, 2040, 19, 19]           4,080
            SiLU-713         [32, 2040, 19, 19]               0
        CNNBlock-714         [32, 2040, 19, 19]               0
AdaptiveAvgPool2d-715           [32, 2040, 1, 1]               0
          Conv2d-716             [32, 85, 1, 1]         173,485
            SiLU-717             [32, 85, 1, 1]               0
          Conv2d-718           [32, 2040, 1, 1]         175,440
         Sigmoid-719           [32, 2040, 1, 1]               0
SqueezeExcitation-720         [32, 2040, 19, 19]               0
          Conv2d-721          [32, 340, 19, 19]         693,600
     BatchNorm2d-722          [32, 340, 19, 19]             680
InvertedResidualBlock-723          [32, 340, 19, 19]               0
          Conv2d-724         [32, 2040, 19, 19]       6,242,400
     BatchNorm2d-725         [32, 2040, 19, 19]           4,080
            SiLU-726         [32, 2040, 19, 19]               0
        CNNBlock-727         [32, 2040, 19, 19]               0
          Conv2d-728         [32, 2040, 19, 19]          51,000
     BatchNorm2d-729         [32, 2040, 19, 19]           4,080
            SiLU-730         [32, 2040, 19, 19]               0
        CNNBlock-731         [32, 2040, 19, 19]               0
AdaptiveAvgPool2d-732           [32, 2040, 1, 1]               0
          Conv2d-733             [32, 85, 1, 1]         173,485
            SiLU-734             [32, 85, 1, 1]               0
          Conv2d-735           [32, 2040, 1, 1]         175,440
         Sigmoid-736           [32, 2040, 1, 1]               0
SqueezeExcitation-737         [32, 2040, 19, 19]               0
          Conv2d-738          [32, 340, 19, 19]         693,600
     BatchNorm2d-739          [32, 340, 19, 19]             680
InvertedResidualBlock-740          [32, 340, 19, 19]               0
          Conv2d-741         [32, 2040, 19, 19]       6,242,400
     BatchNorm2d-742         [32, 2040, 19, 19]           4,080
            SiLU-743         [32, 2040, 19, 19]               0
        CNNBlock-744         [32, 2040, 19, 19]               0
          Conv2d-745         [32, 2040, 19, 19]          51,000
     BatchNorm2d-746         [32, 2040, 19, 19]           4,080
            SiLU-747         [32, 2040, 19, 19]               0
        CNNBlock-748         [32, 2040, 19, 19]               0
AdaptiveAvgPool2d-749           [32, 2040, 1, 1]               0
          Conv2d-750             [32, 85, 1, 1]         173,485
            SiLU-751             [32, 85, 1, 1]               0
          Conv2d-752           [32, 2040, 1, 1]         175,440
         Sigmoid-753           [32, 2040, 1, 1]               0
SqueezeExcitation-754         [32, 2040, 19, 19]               0
          Conv2d-755          [32, 340, 19, 19]         693,600
     BatchNorm2d-756          [32, 340, 19, 19]             680
InvertedResidualBlock-757          [32, 340, 19, 19]               0
          Conv2d-758         [32, 2040, 19, 19]       6,242,400
     BatchNorm2d-759         [32, 2040, 19, 19]           4,080
            SiLU-760         [32, 2040, 19, 19]               0
        CNNBlock-761         [32, 2040, 19, 19]               0
          Conv2d-762         [32, 2040, 19, 19]          18,360
     BatchNorm2d-763         [32, 2040, 19, 19]           4,080
            SiLU-764         [32, 2040, 19, 19]               0
        CNNBlock-765         [32, 2040, 19, 19]               0
AdaptiveAvgPool2d-766           [32, 2040, 1, 1]               0
          Conv2d-767             [32, 85, 1, 1]         173,485
            SiLU-768             [32, 85, 1, 1]               0
          Conv2d-769           [32, 2040, 1, 1]         175,440
         Sigmoid-770           [32, 2040, 1, 1]               0
SqueezeExcitation-771         [32, 2040, 19, 19]               0
          Conv2d-772          [32, 568, 19, 19]       1,158,720
     BatchNorm2d-773          [32, 568, 19, 19]           1,136
InvertedResidualBlock-774          [32, 568, 19, 19]               0
          Conv2d-775         [32, 3408, 19, 19]      17,421,696
     BatchNorm2d-776         [32, 3408, 19, 19]           6,816
            SiLU-777         [32, 3408, 19, 19]               0
        CNNBlock-778         [32, 3408, 19, 19]               0
          Conv2d-779         [32, 3408, 19, 19]          30,672
     BatchNorm2d-780         [32, 3408, 19, 19]           6,816
            SiLU-781         [32, 3408, 19, 19]               0
        CNNBlock-782         [32, 3408, 19, 19]               0
AdaptiveAvgPool2d-783           [32, 3408, 1, 1]               0
          Conv2d-784            [32, 142, 1, 1]         484,078
            SiLU-785            [32, 142, 1, 1]               0
          Conv2d-786           [32, 3408, 1, 1]         487,344
         Sigmoid-787           [32, 3408, 1, 1]               0
SqueezeExcitation-788         [32, 3408, 19, 19]               0
          Conv2d-789          [32, 568, 19, 19]       1,935,744
     BatchNorm2d-790          [32, 568, 19, 19]           1,136
InvertedResidualBlock-791          [32, 568, 19, 19]               0
          Conv2d-792         [32, 3408, 19, 19]      17,421,696
     BatchNorm2d-793         [32, 3408, 19, 19]           6,816
            SiLU-794         [32, 3408, 19, 19]               0
        CNNBlock-795         [32, 3408, 19, 19]               0
          Conv2d-796         [32, 3408, 19, 19]          30,672
     BatchNorm2d-797         [32, 3408, 19, 19]           6,816
            SiLU-798         [32, 3408, 19, 19]               0
        CNNBlock-799         [32, 3408, 19, 19]               0
AdaptiveAvgPool2d-800           [32, 3408, 1, 1]               0
          Conv2d-801            [32, 142, 1, 1]         484,078
            SiLU-802            [32, 142, 1, 1]               0
          Conv2d-803           [32, 3408, 1, 1]         487,344
         Sigmoid-804           [32, 3408, 1, 1]               0
SqueezeExcitation-805         [32, 3408, 19, 19]               0
          Conv2d-806          [32, 568, 19, 19]       1,935,744
     BatchNorm2d-807          [32, 568, 19, 19]           1,136
InvertedResidualBlock-808          [32, 568, 19, 19]               0
          Conv2d-809         [32, 2268, 19, 19]       1,288,224
     BatchNorm2d-810         [32, 2268, 19, 19]           4,536
            SiLU-811         [32, 2268, 19, 19]               0
        CNNBlock-812         [32, 2268, 19, 19]               0
AdaptiveAvgPool2d-813           [32, 2268, 1, 1]               0
         Flatten-814                 [32, 2268]               0
         Dropout-815                 [32, 2268]               0
          Linear-816                    [32, 2]           4,538
    EfficientNet-817                    [32, 2]               0
================================================================
Total params: 168,615,809
Trainable params: 168,615,809
Non-trainable params: 0
----------------------------------------------------------------
Input size (MB): 131.84
Forward/backward pass size (MB): 238800.23
Params size (MB): 643.22
Estimated Total Size (MB): 239575.28
----------------------------------------------------------------
…
