EfficientNetB7----------------------------------------------------------------
        Layer (type)               Output Shape         Param #
================================================================
            Conv2d-1          [2, 56, 300, 300]           1,512
       BatchNorm2d-2          [2, 56, 300, 300]             112
              SiLU-3          [2, 56, 300, 300]               0
          CNNBlock-4          [2, 56, 300, 300]               0
            Conv2d-5          [2, 56, 300, 300]             504
       BatchNorm2d-6          [2, 56, 300, 300]             112
              SiLU-7          [2, 56, 300, 300]               0
          CNNBlock-8          [2, 56, 300, 300]               0
 AdaptiveAvgPool2d-9              [2, 56, 1, 1]               0
           Conv2d-10              [2, 14, 1, 1]             798
             SiLU-11              [2, 14, 1, 1]               0
           Conv2d-12              [2, 56, 1, 1]             840
          Sigmoid-13              [2, 56, 1, 1]               0
SqueezeExcitation-14          [2, 56, 300, 300]               0
           Conv2d-15          [2, 28, 300, 300]           1,568
      BatchNorm2d-16          [2, 28, 300, 300]              56
InvertedResidualBlock-17          [2, 28, 300, 300]               0
           Conv2d-18          [2, 28, 300, 300]             252
      BatchNorm2d-19          [2, 28, 300, 300]              56
             SiLU-20          [2, 28, 300, 300]               0
         CNNBlock-21          [2, 28, 300, 300]               0
AdaptiveAvgPool2d-22              [2, 28, 1, 1]               0
           Conv2d-23               [2, 7, 1, 1]             203
             SiLU-24               [2, 7, 1, 1]               0
           Conv2d-25              [2, 28, 1, 1]             224
          Sigmoid-26              [2, 28, 1, 1]               0
SqueezeExcitation-27          [2, 28, 300, 300]               0
           Conv2d-28          [2, 28, 300, 300]             784
      BatchNorm2d-29          [2, 28, 300, 300]              56
InvertedResidualBlock-30          [2, 28, 300, 300]               0
           Conv2d-31          [2, 28, 300, 300]             252
      BatchNorm2d-32          [2, 28, 300, 300]              56
             SiLU-33          [2, 28, 300, 300]               0
         CNNBlock-34          [2, 28, 300, 300]               0
AdaptiveAvgPool2d-35              [2, 28, 1, 1]               0
           Conv2d-36               [2, 7, 1, 1]             203
             SiLU-37               [2, 7, 1, 1]               0
           Conv2d-38              [2, 28, 1, 1]             224
          Sigmoid-39              [2, 28, 1, 1]               0
SqueezeExcitation-40          [2, 28, 300, 300]               0
           Conv2d-41          [2, 28, 300, 300]             784
      BatchNorm2d-42          [2, 28, 300, 300]              56
InvertedResidualBlock-43          [2, 28, 300, 300]               0
           Conv2d-44         [2, 168, 300, 300]          42,336
      BatchNorm2d-45         [2, 168, 300, 300]             336
             SiLU-46         [2, 168, 300, 300]               0
         CNNBlock-47         [2, 168, 300, 300]               0
           Conv2d-48         [2, 168, 150, 150]           1,512
      BatchNorm2d-49         [2, 168, 150, 150]             336
             SiLU-50         [2, 168, 150, 150]               0
         CNNBlock-51         [2, 168, 150, 150]               0
AdaptiveAvgPool2d-52             [2, 168, 1, 1]               0
           Conv2d-53               [2, 7, 1, 1]           1,183
             SiLU-54               [2, 7, 1, 1]               0
           Conv2d-55             [2, 168, 1, 1]           1,344
          Sigmoid-56             [2, 168, 1, 1]               0
SqueezeExcitation-57         [2, 168, 150, 150]               0
           Conv2d-58          [2, 44, 150, 150]           7,392
      BatchNorm2d-59          [2, 44, 150, 150]              88
InvertedResidualBlock-60          [2, 44, 150, 150]               0
           Conv2d-61         [2, 264, 150, 150]         104,544
      BatchNorm2d-62         [2, 264, 150, 150]             528
             SiLU-63         [2, 264, 150, 150]               0
         CNNBlock-64         [2, 264, 150, 150]               0
           Conv2d-65         [2, 264, 150, 150]           2,376
      BatchNorm2d-66         [2, 264, 150, 150]             528
             SiLU-67         [2, 264, 150, 150]               0
         CNNBlock-68         [2, 264, 150, 150]               0
AdaptiveAvgPool2d-69             [2, 264, 1, 1]               0
           Conv2d-70              [2, 11, 1, 1]           2,915
             SiLU-71              [2, 11, 1, 1]               0
           Conv2d-72             [2, 264, 1, 1]           3,168
          Sigmoid-73             [2, 264, 1, 1]               0
SqueezeExcitation-74         [2, 264, 150, 150]               0
           Conv2d-75          [2, 44, 150, 150]          11,616
      BatchNorm2d-76          [2, 44, 150, 150]              88
InvertedResidualBlock-77          [2, 44, 150, 150]               0
           Conv2d-78         [2, 264, 150, 150]         104,544
      BatchNorm2d-79         [2, 264, 150, 150]             528
             SiLU-80         [2, 264, 150, 150]               0
         CNNBlock-81         [2, 264, 150, 150]               0
           Conv2d-82         [2, 264, 150, 150]           2,376
      BatchNorm2d-83         [2, 264, 150, 150]             528
             SiLU-84         [2, 264, 150, 150]               0
         CNNBlock-85         [2, 264, 150, 150]               0
AdaptiveAvgPool2d-86             [2, 264, 1, 1]               0
           Conv2d-87              [2, 11, 1, 1]           2,915
             SiLU-88              [2, 11, 1, 1]               0
           Conv2d-89             [2, 264, 1, 1]           3,168
          Sigmoid-90             [2, 264, 1, 1]               0
SqueezeExcitation-91         [2, 264, 150, 150]               0
           Conv2d-92          [2, 44, 150, 150]          11,616
      BatchNorm2d-93          [2, 44, 150, 150]              88
InvertedResidualBlock-94          [2, 44, 150, 150]               0
           Conv2d-95         [2, 264, 150, 150]         104,544
      BatchNorm2d-96         [2, 264, 150, 150]             528
             SiLU-97         [2, 264, 150, 150]               0
         CNNBlock-98         [2, 264, 150, 150]               0
           Conv2d-99         [2, 264, 150, 150]           2,376
     BatchNorm2d-100         [2, 264, 150, 150]             528
            SiLU-101         [2, 264, 150, 150]               0
        CNNBlock-102         [2, 264, 150, 150]               0
AdaptiveAvgPool2d-103             [2, 264, 1, 1]               0
          Conv2d-104              [2, 11, 1, 1]           2,915
            SiLU-105              [2, 11, 1, 1]               0
          Conv2d-106             [2, 264, 1, 1]           3,168
         Sigmoid-107             [2, 264, 1, 1]               0
SqueezeExcitation-108         [2, 264, 150, 150]               0
          Conv2d-109          [2, 44, 150, 150]          11,616
     BatchNorm2d-110          [2, 44, 150, 150]              88
InvertedResidualBlock-111          [2, 44, 150, 150]               0
          Conv2d-112         [2, 264, 150, 150]         104,544
     BatchNorm2d-113         [2, 264, 150, 150]             528
            SiLU-114         [2, 264, 150, 150]               0
        CNNBlock-115         [2, 264, 150, 150]               0
          Conv2d-116         [2, 264, 150, 150]           2,376
     BatchNorm2d-117         [2, 264, 150, 150]             528
            SiLU-118         [2, 264, 150, 150]               0
        CNNBlock-119         [2, 264, 150, 150]               0
AdaptiveAvgPool2d-120             [2, 264, 1, 1]               0
          Conv2d-121              [2, 11, 1, 1]           2,915
            SiLU-122              [2, 11, 1, 1]               0
          Conv2d-123             [2, 264, 1, 1]           3,168
         Sigmoid-124             [2, 264, 1, 1]               0
SqueezeExcitation-125         [2, 264, 150, 150]               0
          Conv2d-126          [2, 44, 150, 150]          11,616
     BatchNorm2d-127          [2, 44, 150, 150]              88
InvertedResidualBlock-128          [2, 44, 150, 150]               0
          Conv2d-129         [2, 264, 150, 150]         104,544
     BatchNorm2d-130         [2, 264, 150, 150]             528
            SiLU-131         [2, 264, 150, 150]               0
        CNNBlock-132         [2, 264, 150, 150]               0
          Conv2d-133         [2, 264, 150, 150]           2,376
     BatchNorm2d-134         [2, 264, 150, 150]             528
            SiLU-135         [2, 264, 150, 150]               0
        CNNBlock-136         [2, 264, 150, 150]               0
AdaptiveAvgPool2d-137             [2, 264, 1, 1]               0
          Conv2d-138              [2, 11, 1, 1]           2,915
            SiLU-139              [2, 11, 1, 1]               0
          Conv2d-140             [2, 264, 1, 1]           3,168
         Sigmoid-141             [2, 264, 1, 1]               0
SqueezeExcitation-142         [2, 264, 150, 150]               0
          Conv2d-143          [2, 44, 150, 150]          11,616
     BatchNorm2d-144          [2, 44, 150, 150]              88
InvertedResidualBlock-145          [2, 44, 150, 150]               0
          Conv2d-146         [2, 264, 150, 150]         104,544
     BatchNorm2d-147         [2, 264, 150, 150]             528
            SiLU-148         [2, 264, 150, 150]               0
        CNNBlock-149         [2, 264, 150, 150]               0
          Conv2d-150           [2, 264, 75, 75]           6,600
     BatchNorm2d-151           [2, 264, 75, 75]             528
            SiLU-152           [2, 264, 75, 75]               0
        CNNBlock-153           [2, 264, 75, 75]               0
AdaptiveAvgPool2d-154             [2, 264, 1, 1]               0
          Conv2d-155              [2, 11, 1, 1]           2,915
            SiLU-156              [2, 11, 1, 1]               0
          Conv2d-157             [2, 264, 1, 1]           3,168
         Sigmoid-158             [2, 264, 1, 1]               0
SqueezeExcitation-159           [2, 264, 75, 75]               0
          Conv2d-160            [2, 72, 75, 75]          19,008
     BatchNorm2d-161            [2, 72, 75, 75]             144
InvertedResidualBlock-162            [2, 72, 75, 75]               0
          Conv2d-163           [2, 432, 75, 75]         279,936
     BatchNorm2d-164           [2, 432, 75, 75]             864
            SiLU-165           [2, 432, 75, 75]               0
        CNNBlock-166           [2, 432, 75, 75]               0
          Conv2d-167           [2, 432, 75, 75]          10,800
     BatchNorm2d-168           [2, 432, 75, 75]             864
            SiLU-169           [2, 432, 75, 75]               0
        CNNBlock-170           [2, 432, 75, 75]               0
AdaptiveAvgPool2d-171             [2, 432, 1, 1]               0
          Conv2d-172              [2, 18, 1, 1]           7,794
            SiLU-173              [2, 18, 1, 1]               0
          Conv2d-174             [2, 432, 1, 1]           8,208
         Sigmoid-175             [2, 432, 1, 1]               0
SqueezeExcitation-176           [2, 432, 75, 75]               0
          Conv2d-177            [2, 72, 75, 75]          31,104
     BatchNorm2d-178            [2, 72, 75, 75]             144
InvertedResidualBlock-179            [2, 72, 75, 75]               0
          Conv2d-180           [2, 432, 75, 75]         279,936
     BatchNorm2d-181           [2, 432, 75, 75]             864
            SiLU-182           [2, 432, 75, 75]               0
        CNNBlock-183           [2, 432, 75, 75]               0
          Conv2d-184           [2, 432, 75, 75]          10,800
     BatchNorm2d-185           [2, 432, 75, 75]             864
            SiLU-186           [2, 432, 75, 75]               0
        CNNBlock-187           [2, 432, 75, 75]               0
AdaptiveAvgPool2d-188             [2, 432, 1, 1]               0
          Conv2d-189              [2, 18, 1, 1]           7,794
            SiLU-190              [2, 18, 1, 1]               0
          Conv2d-191             [2, 432, 1, 1]           8,208
         Sigmoid-192             [2, 432, 1, 1]               0
SqueezeExcitation-193           [2, 432, 75, 75]               0
          Conv2d-194            [2, 72, 75, 75]          31,104
     BatchNorm2d-195            [2, 72, 75, 75]             144
InvertedResidualBlock-196            [2, 72, 75, 75]               0
          Conv2d-197           [2, 432, 75, 75]         279,936
     BatchNorm2d-198           [2, 432, 75, 75]             864
            SiLU-199           [2, 432, 75, 75]               0
        CNNBlock-200           [2, 432, 75, 75]               0
          Conv2d-201           [2, 432, 75, 75]          10,800
     BatchNorm2d-202           [2, 432, 75, 75]             864
            SiLU-203           [2, 432, 75, 75]               0
        CNNBlock-204           [2, 432, 75, 75]               0
AdaptiveAvgPool2d-205             [2, 432, 1, 1]               0
          Conv2d-206              [2, 18, 1, 1]           7,794
            SiLU-207              [2, 18, 1, 1]               0
          Conv2d-208             [2, 432, 1, 1]           8,208
         Sigmoid-209             [2, 432, 1, 1]               0
SqueezeExcitation-210           [2, 432, 75, 75]               0
          Conv2d-211            [2, 72, 75, 75]          31,104
     BatchNorm2d-212            [2, 72, 75, 75]             144
InvertedResidualBlock-213            [2, 72, 75, 75]               0
          Conv2d-214           [2, 432, 75, 75]         279,936
     BatchNorm2d-215           [2, 432, 75, 75]             864
            SiLU-216           [2, 432, 75, 75]               0
        CNNBlock-217           [2, 432, 75, 75]               0
          Conv2d-218           [2, 432, 75, 75]          10,800
     BatchNorm2d-219           [2, 432, 75, 75]             864
            SiLU-220           [2, 432, 75, 75]               0
        CNNBlock-221           [2, 432, 75, 75]               0
AdaptiveAvgPool2d-222             [2, 432, 1, 1]               0
          Conv2d-223              [2, 18, 1, 1]           7,794
            SiLU-224              [2, 18, 1, 1]               0
          Conv2d-225             [2, 432, 1, 1]           8,208
         Sigmoid-226             [2, 432, 1, 1]               0
SqueezeExcitation-227           [2, 432, 75, 75]               0
          Conv2d-228            [2, 72, 75, 75]          31,104
     BatchNorm2d-229            [2, 72, 75, 75]             144
InvertedResidualBlock-230            [2, 72, 75, 75]               0
          Conv2d-231           [2, 432, 75, 75]         279,936
     BatchNorm2d-232           [2, 432, 75, 75]             864
            SiLU-233           [2, 432, 75, 75]               0
        CNNBlock-234           [2, 432, 75, 75]               0
          Conv2d-235           [2, 432, 75, 75]          10,800
     BatchNorm2d-236           [2, 432, 75, 75]             864
            SiLU-237           [2, 432, 75, 75]               0
        CNNBlock-238           [2, 432, 75, 75]               0
AdaptiveAvgPool2d-239             [2, 432, 1, 1]               0
          Conv2d-240              [2, 18, 1, 1]           7,794
            SiLU-241              [2, 18, 1, 1]               0
          Conv2d-242             [2, 432, 1, 1]           8,208
         Sigmoid-243             [2, 432, 1, 1]               0
SqueezeExcitation-244           [2, 432, 75, 75]               0
          Conv2d-245            [2, 72, 75, 75]          31,104
     BatchNorm2d-246            [2, 72, 75, 75]             144
InvertedResidualBlock-247            [2, 72, 75, 75]               0
          Conv2d-248           [2, 432, 75, 75]         279,936
     BatchNorm2d-249           [2, 432, 75, 75]             864
            SiLU-250           [2, 432, 75, 75]               0
        CNNBlock-251           [2, 432, 75, 75]               0
          Conv2d-252           [2, 432, 38, 38]           3,888
     BatchNorm2d-253           [2, 432, 38, 38]             864
            SiLU-254           [2, 432, 38, 38]               0
        CNNBlock-255           [2, 432, 38, 38]               0
AdaptiveAvgPool2d-256             [2, 432, 1, 1]               0
          Conv2d-257              [2, 18, 1, 1]           7,794
            SiLU-258              [2, 18, 1, 1]               0
          Conv2d-259             [2, 432, 1, 1]           8,208
         Sigmoid-260             [2, 432, 1, 1]               0
SqueezeExcitation-261           [2, 432, 38, 38]               0
          Conv2d-262           [2, 144, 38, 38]          62,208
     BatchNorm2d-263           [2, 144, 38, 38]             288
InvertedResidualBlock-264           [2, 144, 38, 38]               0
          Conv2d-265           [2, 864, 38, 38]       1,119,744
     BatchNorm2d-266           [2, 864, 38, 38]           1,728
            SiLU-267           [2, 864, 38, 38]               0
        CNNBlock-268           [2, 864, 38, 38]               0
          Conv2d-269           [2, 864, 38, 38]           7,776
     BatchNorm2d-270           [2, 864, 38, 38]           1,728
            SiLU-271           [2, 864, 38, 38]               0
        CNNBlock-272           [2, 864, 38, 38]               0
AdaptiveAvgPool2d-273             [2, 864, 1, 1]               0
          Conv2d-274              [2, 36, 1, 1]          31,140
            SiLU-275              [2, 36, 1, 1]               0
          Conv2d-276             [2, 864, 1, 1]          31,968
         Sigmoid-277             [2, 864, 1, 1]               0
SqueezeExcitation-278           [2, 864, 38, 38]               0
          Conv2d-279           [2, 144, 38, 38]         124,416
     BatchNorm2d-280           [2, 144, 38, 38]             288
InvertedResidualBlock-281           [2, 144, 38, 38]               0
          Conv2d-282           [2, 864, 38, 38]       1,119,744
     BatchNorm2d-283           [2, 864, 38, 38]           1,728
            SiLU-284           [2, 864, 38, 38]               0
        CNNBlock-285           [2, 864, 38, 38]               0
          Conv2d-286           [2, 864, 38, 38]           7,776
     BatchNorm2d-287           [2, 864, 38, 38]           1,728
            SiLU-288           [2, 864, 38, 38]               0
        CNNBlock-289           [2, 864, 38, 38]               0
AdaptiveAvgPool2d-290             [2, 864, 1, 1]               0
          Conv2d-291              [2, 36, 1, 1]          31,140
            SiLU-292              [2, 36, 1, 1]               0
          Conv2d-293             [2, 864, 1, 1]          31,968
         Sigmoid-294             [2, 864, 1, 1]               0
SqueezeExcitation-295           [2, 864, 38, 38]               0
          Conv2d-296           [2, 144, 38, 38]         124,416
     BatchNorm2d-297           [2, 144, 38, 38]             288
InvertedResidualBlock-298           [2, 144, 38, 38]               0
          Conv2d-299           [2, 864, 38, 38]       1,119,744
     BatchNorm2d-300           [2, 864, 38, 38]           1,728
            SiLU-301           [2, 864, 38, 38]               0
        CNNBlock-302           [2, 864, 38, 38]               0
          Conv2d-303           [2, 864, 38, 38]           7,776
     BatchNorm2d-304           [2, 864, 38, 38]           1,728
            SiLU-305           [2, 864, 38, 38]               0
        CNNBlock-306           [2, 864, 38, 38]               0
AdaptiveAvgPool2d-307             [2, 864, 1, 1]               0
          Conv2d-308              [2, 36, 1, 1]          31,140
            SiLU-309              [2, 36, 1, 1]               0
          Conv2d-310             [2, 864, 1, 1]          31,968
         Sigmoid-311             [2, 864, 1, 1]               0
SqueezeExcitation-312           [2, 864, 38, 38]               0
          Conv2d-313           [2, 144, 38, 38]         124,416
     BatchNorm2d-314           [2, 144, 38, 38]             288
InvertedResidualBlock-315           [2, 144, 38, 38]               0
          Conv2d-316           [2, 864, 38, 38]       1,119,744
     BatchNorm2d-317           [2, 864, 38, 38]           1,728
            SiLU-318           [2, 864, 38, 38]               0
        CNNBlock-319           [2, 864, 38, 38]               0
          Conv2d-320           [2, 864, 38, 38]           7,776
     BatchNorm2d-321           [2, 864, 38, 38]           1,728
            SiLU-322           [2, 864, 38, 38]               0
        CNNBlock-323           [2, 864, 38, 38]               0
AdaptiveAvgPool2d-324             [2, 864, 1, 1]               0
          Conv2d-325              [2, 36, 1, 1]          31,140
            SiLU-326              [2, 36, 1, 1]               0
          Conv2d-327             [2, 864, 1, 1]          31,968
         Sigmoid-328             [2, 864, 1, 1]               0
SqueezeExcitation-329           [2, 864, 38, 38]               0
          Conv2d-330           [2, 144, 38, 38]         124,416
     BatchNorm2d-331           [2, 144, 38, 38]             288
InvertedResidualBlock-332           [2, 144, 38, 38]               0
          Conv2d-333           [2, 864, 38, 38]       1,119,744
     BatchNorm2d-334           [2, 864, 38, 38]           1,728
            SiLU-335           [2, 864, 38, 38]               0
        CNNBlock-336           [2, 864, 38, 38]               0
          Conv2d-337           [2, 864, 38, 38]           7,776
     BatchNorm2d-338           [2, 864, 38, 38]           1,728
            SiLU-339           [2, 864, 38, 38]               0
        CNNBlock-340           [2, 864, 38, 38]               0
AdaptiveAvgPool2d-341             [2, 864, 1, 1]               0
          Conv2d-342              [2, 36, 1, 1]          31,140
            SiLU-343              [2, 36, 1, 1]               0
          Conv2d-344             [2, 864, 1, 1]          31,968
         Sigmoid-345             [2, 864, 1, 1]               0
SqueezeExcitation-346           [2, 864, 38, 38]               0
          Conv2d-347           [2, 144, 38, 38]         124,416
     BatchNorm2d-348           [2, 144, 38, 38]             288
InvertedResidualBlock-349           [2, 144, 38, 38]               0
          Conv2d-350           [2, 864, 38, 38]       1,119,744
     BatchNorm2d-351           [2, 864, 38, 38]           1,728
            SiLU-352           [2, 864, 38, 38]               0
        CNNBlock-353           [2, 864, 38, 38]               0
          Conv2d-354           [2, 864, 38, 38]           7,776
     BatchNorm2d-355           [2, 864, 38, 38]           1,728
            SiLU-356           [2, 864, 38, 38]               0
        CNNBlock-357           [2, 864, 38, 38]               0
AdaptiveAvgPool2d-358             [2, 864, 1, 1]               0
          Conv2d-359              [2, 36, 1, 1]          31,140
            SiLU-360              [2, 36, 1, 1]               0
          Conv2d-361             [2, 864, 1, 1]          31,968
         Sigmoid-362             [2, 864, 1, 1]               0
SqueezeExcitation-363           [2, 864, 38, 38]               0
          Conv2d-364           [2, 144, 38, 38]         124,416
     BatchNorm2d-365           [2, 144, 38, 38]             288
InvertedResidualBlock-366           [2, 144, 38, 38]               0
          Conv2d-367           [2, 864, 38, 38]       1,119,744
     BatchNorm2d-368           [2, 864, 38, 38]           1,728
            SiLU-369           [2, 864, 38, 38]               0
        CNNBlock-370           [2, 864, 38, 38]               0
          Conv2d-371           [2, 864, 38, 38]           7,776
     BatchNorm2d-372           [2, 864, 38, 38]           1,728
            SiLU-373           [2, 864, 38, 38]               0
        CNNBlock-374           [2, 864, 38, 38]               0
AdaptiveAvgPool2d-375             [2, 864, 1, 1]               0
          Conv2d-376              [2, 36, 1, 1]          31,140
            SiLU-377              [2, 36, 1, 1]               0
          Conv2d-378             [2, 864, 1, 1]          31,968
         Sigmoid-379             [2, 864, 1, 1]               0
SqueezeExcitation-380           [2, 864, 38, 38]               0
          Conv2d-381           [2, 144, 38, 38]         124,416
     BatchNorm2d-382           [2, 144, 38, 38]             288
InvertedResidualBlock-383           [2, 144, 38, 38]               0
          Conv2d-384           [2, 864, 38, 38]       1,119,744
     BatchNorm2d-385           [2, 864, 38, 38]           1,728
            SiLU-386           [2, 864, 38, 38]               0
        CNNBlock-387           [2, 864, 38, 38]               0
          Conv2d-388           [2, 864, 38, 38]           7,776
     BatchNorm2d-389           [2, 864, 38, 38]           1,728
            SiLU-390           [2, 864, 38, 38]               0
        CNNBlock-391           [2, 864, 38, 38]               0
AdaptiveAvgPool2d-392             [2, 864, 1, 1]               0
          Conv2d-393              [2, 36, 1, 1]          31,140
            SiLU-394              [2, 36, 1, 1]               0
          Conv2d-395             [2, 864, 1, 1]          31,968
         Sigmoid-396             [2, 864, 1, 1]               0
SqueezeExcitation-397           [2, 864, 38, 38]               0
          Conv2d-398           [2, 144, 38, 38]         124,416
     BatchNorm2d-399           [2, 144, 38, 38]             288
InvertedResidualBlock-400           [2, 144, 38, 38]               0
          Conv2d-401           [2, 864, 38, 38]       1,119,744
     BatchNorm2d-402           [2, 864, 38, 38]           1,728
            SiLU-403           [2, 864, 38, 38]               0
        CNNBlock-404           [2, 864, 38, 38]               0
          Conv2d-405           [2, 864, 38, 38]          21,600
     BatchNorm2d-406           [2, 864, 38, 38]           1,728
            SiLU-407           [2, 864, 38, 38]               0
        CNNBlock-408           [2, 864, 38, 38]               0
AdaptiveAvgPool2d-409             [2, 864, 1, 1]               0
          Conv2d-410              [2, 36, 1, 1]          31,140
            SiLU-411              [2, 36, 1, 1]               0
          Conv2d-412             [2, 864, 1, 1]          31,968
         Sigmoid-413             [2, 864, 1, 1]               0
SqueezeExcitation-414           [2, 864, 38, 38]               0
          Conv2d-415           [2, 200, 38, 38]         172,800
     BatchNorm2d-416           [2, 200, 38, 38]             400
InvertedResidualBlock-417           [2, 200, 38, 38]               0
          Conv2d-418          [2, 1200, 38, 38]       2,160,000
     BatchNorm2d-419          [2, 1200, 38, 38]           2,400
            SiLU-420          [2, 1200, 38, 38]               0
        CNNBlock-421          [2, 1200, 38, 38]               0
          Conv2d-422          [2, 1200, 38, 38]          30,000
     BatchNorm2d-423          [2, 1200, 38, 38]           2,400
            SiLU-424          [2, 1200, 38, 38]               0
        CNNBlock-425          [2, 1200, 38, 38]               0
AdaptiveAvgPool2d-426            [2, 1200, 1, 1]               0
          Conv2d-427              [2, 50, 1, 1]          60,050
            SiLU-428              [2, 50, 1, 1]               0
          Conv2d-429            [2, 1200, 1, 1]          61,200
         Sigmoid-430            [2, 1200, 1, 1]               0
SqueezeExcitation-431          [2, 1200, 38, 38]               0
          Conv2d-432           [2, 200, 38, 38]         240,000
     BatchNorm2d-433           [2, 200, 38, 38]             400
InvertedResidualBlock-434           [2, 200, 38, 38]               0
          Conv2d-435          [2, 1200, 38, 38]       2,160,000
     BatchNorm2d-436          [2, 1200, 38, 38]           2,400
            SiLU-437          [2, 1200, 38, 38]               0
        CNNBlock-438          [2, 1200, 38, 38]               0
          Conv2d-439          [2, 1200, 38, 38]          30,000
     BatchNorm2d-440          [2, 1200, 38, 38]           2,400
            SiLU-441          [2, 1200, 38, 38]               0
        CNNBlock-442          [2, 1200, 38, 38]               0
AdaptiveAvgPool2d-443            [2, 1200, 1, 1]               0
          Conv2d-444              [2, 50, 1, 1]          60,050
            SiLU-445              [2, 50, 1, 1]               0
          Conv2d-446            [2, 1200, 1, 1]          61,200
         Sigmoid-447            [2, 1200, 1, 1]               0
SqueezeExcitation-448          [2, 1200, 38, 38]               0
          Conv2d-449           [2, 200, 38, 38]         240,000
     BatchNorm2d-450           [2, 200, 38, 38]             400
InvertedResidualBlock-451           [2, 200, 38, 38]               0
          Conv2d-452          [2, 1200, 38, 38]       2,160,000
     BatchNorm2d-453          [2, 1200, 38, 38]           2,400
            SiLU-454          [2, 1200, 38, 38]               0
        CNNBlock-455          [2, 1200, 38, 38]               0
          Conv2d-456          [2, 1200, 38, 38]          30,000
     BatchNorm2d-457          [2, 1200, 38, 38]           2,400
            SiLU-458          [2, 1200, 38, 38]               0
        CNNBlock-459          [2, 1200, 38, 38]               0
AdaptiveAvgPool2d-460            [2, 1200, 1, 1]               0
          Conv2d-461              [2, 50, 1, 1]          60,050
            SiLU-462              [2, 50, 1, 1]               0
          Conv2d-463            [2, 1200, 1, 1]          61,200
         Sigmoid-464            [2, 1200, 1, 1]               0
SqueezeExcitation-465          [2, 1200, 38, 38]               0
          Conv2d-466           [2, 200, 38, 38]         240,000
     BatchNorm2d-467           [2, 200, 38, 38]             400
InvertedResidualBlock-468           [2, 200, 38, 38]               0
          Conv2d-469          [2, 1200, 38, 38]       2,160,000
     BatchNorm2d-470          [2, 1200, 38, 38]           2,400
            SiLU-471          [2, 1200, 38, 38]               0
        CNNBlock-472          [2, 1200, 38, 38]               0
          Conv2d-473          [2, 1200, 38, 38]          30,000
     BatchNorm2d-474          [2, 1200, 38, 38]           2,400
            SiLU-475          [2, 1200, 38, 38]               0
        CNNBlock-476          [2, 1200, 38, 38]               0
AdaptiveAvgPool2d-477            [2, 1200, 1, 1]               0
          Conv2d-478              [2, 50, 1, 1]          60,050
            SiLU-479              [2, 50, 1, 1]               0
          Conv2d-480            [2, 1200, 1, 1]          61,200
         Sigmoid-481            [2, 1200, 1, 1]               0
SqueezeExcitation-482          [2, 1200, 38, 38]               0
          Conv2d-483           [2, 200, 38, 38]         240,000
     BatchNorm2d-484           [2, 200, 38, 38]             400
InvertedResidualBlock-485           [2, 200, 38, 38]               0
          Conv2d-486          [2, 1200, 38, 38]       2,160,000
     BatchNorm2d-487          [2, 1200, 38, 38]           2,400
            SiLU-488          [2, 1200, 38, 38]               0
        CNNBlock-489          [2, 1200, 38, 38]               0
          Conv2d-490          [2, 1200, 38, 38]          30,000
     BatchNorm2d-491          [2, 1200, 38, 38]           2,400
            SiLU-492          [2, 1200, 38, 38]               0
        CNNBlock-493          [2, 1200, 38, 38]               0
AdaptiveAvgPool2d-494            [2, 1200, 1, 1]               0
          Conv2d-495              [2, 50, 1, 1]          60,050
            SiLU-496              [2, 50, 1, 1]               0
          Conv2d-497            [2, 1200, 1, 1]          61,200
         Sigmoid-498            [2, 1200, 1, 1]               0
SqueezeExcitation-499          [2, 1200, 38, 38]               0
          Conv2d-500           [2, 200, 38, 38]         240,000
     BatchNorm2d-501           [2, 200, 38, 38]             400
InvertedResidualBlock-502           [2, 200, 38, 38]               0
          Conv2d-503          [2, 1200, 38, 38]       2,160,000
     BatchNorm2d-504          [2, 1200, 38, 38]           2,400
            SiLU-505          [2, 1200, 38, 38]               0
        CNNBlock-506          [2, 1200, 38, 38]               0
          Conv2d-507          [2, 1200, 38, 38]          30,000
     BatchNorm2d-508          [2, 1200, 38, 38]           2,400
            SiLU-509          [2, 1200, 38, 38]               0
        CNNBlock-510          [2, 1200, 38, 38]               0
AdaptiveAvgPool2d-511            [2, 1200, 1, 1]               0
          Conv2d-512              [2, 50, 1, 1]          60,050
            SiLU-513              [2, 50, 1, 1]               0
          Conv2d-514            [2, 1200, 1, 1]          61,200
         Sigmoid-515            [2, 1200, 1, 1]               0
SqueezeExcitation-516          [2, 1200, 38, 38]               0
          Conv2d-517           [2, 200, 38, 38]         240,000
     BatchNorm2d-518           [2, 200, 38, 38]             400
InvertedResidualBlock-519           [2, 200, 38, 38]               0
          Conv2d-520          [2, 1200, 38, 38]       2,160,000
     BatchNorm2d-521          [2, 1200, 38, 38]           2,400
            SiLU-522          [2, 1200, 38, 38]               0
        CNNBlock-523          [2, 1200, 38, 38]               0
          Conv2d-524          [2, 1200, 38, 38]          30,000
     BatchNorm2d-525          [2, 1200, 38, 38]           2,400
            SiLU-526          [2, 1200, 38, 38]               0
        CNNBlock-527          [2, 1200, 38, 38]               0
AdaptiveAvgPool2d-528            [2, 1200, 1, 1]               0
          Conv2d-529              [2, 50, 1, 1]          60,050
            SiLU-530              [2, 50, 1, 1]               0
          Conv2d-531            [2, 1200, 1, 1]          61,200
         Sigmoid-532            [2, 1200, 1, 1]               0
SqueezeExcitation-533          [2, 1200, 38, 38]               0
          Conv2d-534           [2, 200, 38, 38]         240,000
     BatchNorm2d-535           [2, 200, 38, 38]             400
InvertedResidualBlock-536           [2, 200, 38, 38]               0
          Conv2d-537          [2, 1200, 38, 38]       2,160,000
     BatchNorm2d-538          [2, 1200, 38, 38]           2,400
            SiLU-539          [2, 1200, 38, 38]               0
        CNNBlock-540          [2, 1200, 38, 38]               0
          Conv2d-541          [2, 1200, 38, 38]          30,000
     BatchNorm2d-542          [2, 1200, 38, 38]           2,400
            SiLU-543          [2, 1200, 38, 38]               0
        CNNBlock-544          [2, 1200, 38, 38]               0
AdaptiveAvgPool2d-545            [2, 1200, 1, 1]               0
          Conv2d-546              [2, 50, 1, 1]          60,050
            SiLU-547              [2, 50, 1, 1]               0
          Conv2d-548            [2, 1200, 1, 1]          61,200
         Sigmoid-549            [2, 1200, 1, 1]               0
SqueezeExcitation-550          [2, 1200, 38, 38]               0
          Conv2d-551           [2, 200, 38, 38]         240,000
     BatchNorm2d-552           [2, 200, 38, 38]             400
InvertedResidualBlock-553           [2, 200, 38, 38]               0
          Conv2d-554          [2, 1200, 38, 38]       2,160,000
     BatchNorm2d-555          [2, 1200, 38, 38]           2,400
            SiLU-556          [2, 1200, 38, 38]               0
        CNNBlock-557          [2, 1200, 38, 38]               0
          Conv2d-558          [2, 1200, 19, 19]          30,000
     BatchNorm2d-559          [2, 1200, 19, 19]           2,400
            SiLU-560          [2, 1200, 19, 19]               0
        CNNBlock-561          [2, 1200, 19, 19]               0
AdaptiveAvgPool2d-562            [2, 1200, 1, 1]               0
          Conv2d-563              [2, 50, 1, 1]          60,050
            SiLU-564              [2, 50, 1, 1]               0
          Conv2d-565            [2, 1200, 1, 1]          61,200
         Sigmoid-566            [2, 1200, 1, 1]               0
SqueezeExcitation-567          [2, 1200, 19, 19]               0
          Conv2d-568           [2, 340, 19, 19]         408,000
     BatchNorm2d-569           [2, 340, 19, 19]             680
InvertedResidualBlock-570           [2, 340, 19, 19]               0
          Conv2d-571          [2, 2040, 19, 19]       6,242,400
     BatchNorm2d-572          [2, 2040, 19, 19]           4,080
            SiLU-573          [2, 2040, 19, 19]               0
        CNNBlock-574          [2, 2040, 19, 19]               0
          Conv2d-575          [2, 2040, 19, 19]          51,000
     BatchNorm2d-576          [2, 2040, 19, 19]           4,080
            SiLU-577          [2, 2040, 19, 19]               0
        CNNBlock-578          [2, 2040, 19, 19]               0
AdaptiveAvgPool2d-579            [2, 2040, 1, 1]               0
          Conv2d-580              [2, 85, 1, 1]         173,485
            SiLU-581              [2, 85, 1, 1]               0
          Conv2d-582            [2, 2040, 1, 1]         175,440
         Sigmoid-583            [2, 2040, 1, 1]               0
SqueezeExcitation-584          [2, 2040, 19, 19]               0
          Conv2d-585           [2, 340, 19, 19]         693,600
     BatchNorm2d-586           [2, 340, 19, 19]             680
InvertedResidualBlock-587           [2, 340, 19, 19]               0
          Conv2d-588          [2, 2040, 19, 19]       6,242,400
     BatchNorm2d-589          [2, 2040, 19, 19]           4,080
            SiLU-590          [2, 2040, 19, 19]               0
        CNNBlock-591          [2, 2040, 19, 19]               0
          Conv2d-592          [2, 2040, 19, 19]          51,000
     BatchNorm2d-593          [2, 2040, 19, 19]           4,080
            SiLU-594          [2, 2040, 19, 19]               0
        CNNBlock-595          [2, 2040, 19, 19]               0
AdaptiveAvgPool2d-596            [2, 2040, 1, 1]               0
          Conv2d-597              [2, 85, 1, 1]         173,485
            SiLU-598              [2, 85, 1, 1]               0
          Conv2d-599            [2, 2040, 1, 1]         175,440
         Sigmoid-600            [2, 2040, 1, 1]               0
SqueezeExcitation-601          [2, 2040, 19, 19]               0
          Conv2d-602           [2, 340, 19, 19]         693,600
     BatchNorm2d-603           [2, 340, 19, 19]             680
InvertedResidualBlock-604           [2, 340, 19, 19]               0
          Conv2d-605          [2, 2040, 19, 19]       6,242,400
     BatchNorm2d-606          [2, 2040, 19, 19]           4,080
            SiLU-607          [2, 2040, 19, 19]               0
        CNNBlock-608          [2, 2040, 19, 19]               0
          Conv2d-609          [2, 2040, 19, 19]          51,000
     BatchNorm2d-610          [2, 2040, 19, 19]           4,080
            SiLU-611          [2, 2040, 19, 19]               0
        CNNBlock-612          [2, 2040, 19, 19]               0
AdaptiveAvgPool2d-613            [2, 2040, 1, 1]               0
          Conv2d-614              [2, 85, 1, 1]         173,485
            SiLU-615              [2, 85, 1, 1]               0
          Conv2d-616            [2, 2040, 1, 1]         175,440
         Sigmoid-617            [2, 2040, 1, 1]               0
SqueezeExcitation-618          [2, 2040, 19, 19]               0
          Conv2d-619           [2, 340, 19, 19]         693,600
     BatchNorm2d-620           [2, 340, 19, 19]             680
InvertedResidualBlock-621           [2, 340, 19, 19]               0
          Conv2d-622          [2, 2040, 19, 19]       6,242,400
     BatchNorm2d-623          [2, 2040, 19, 19]           4,080
            SiLU-624          [2, 2040, 19, 19]               0
        CNNBlock-625          [2, 2040, 19, 19]               0
          Conv2d-626          [2, 2040, 19, 19]          51,000
     BatchNorm2d-627          [2, 2040, 19, 19]           4,080
            SiLU-628          [2, 2040, 19, 19]               0
        CNNBlock-629          [2, 2040, 19, 19]               0
AdaptiveAvgPool2d-630            [2, 2040, 1, 1]               0
          Conv2d-631              [2, 85, 1, 1]         173,485
            SiLU-632              [2, 85, 1, 1]               0
          Conv2d-633            [2, 2040, 1, 1]         175,440
         Sigmoid-634            [2, 2040, 1, 1]               0
SqueezeExcitation-635          [2, 2040, 19, 19]               0
          Conv2d-636           [2, 340, 19, 19]         693,600
     BatchNorm2d-637           [2, 340, 19, 19]             680
InvertedResidualBlock-638           [2, 340, 19, 19]               0
          Conv2d-639          [2, 2040, 19, 19]       6,242,400
     BatchNorm2d-640          [2, 2040, 19, 19]           4,080
            SiLU-641          [2, 2040, 19, 19]               0
        CNNBlock-642          [2, 2040, 19, 19]               0
          Conv2d-643          [2, 2040, 19, 19]          51,000
     BatchNorm2d-644          [2, 2040, 19, 19]           4,080
            SiLU-645          [2, 2040, 19, 19]               0
        CNNBlock-646          [2, 2040, 19, 19]               0
AdaptiveAvgPool2d-647            [2, 2040, 1, 1]               0
          Conv2d-648              [2, 85, 1, 1]         173,485
            SiLU-649              [2, 85, 1, 1]               0
          Conv2d-650            [2, 2040, 1, 1]         175,440
         Sigmoid-651            [2, 2040, 1, 1]               0
SqueezeExcitation-652          [2, 2040, 19, 19]               0
          Conv2d-653           [2, 340, 19, 19]         693,600
     BatchNorm2d-654           [2, 340, 19, 19]             680
InvertedResidualBlock-655           [2, 340, 19, 19]               0
          Conv2d-656          [2, 2040, 19, 19]       6,242,400
     BatchNorm2d-657          [2, 2040, 19, 19]           4,080
            SiLU-658          [2, 2040, 19, 19]               0
        CNNBlock-659          [2, 2040, 19, 19]               0
          Conv2d-660          [2, 2040, 19, 19]          51,000
     BatchNorm2d-661          [2, 2040, 19, 19]           4,080
            SiLU-662          [2, 2040, 19, 19]               0
        CNNBlock-663          [2, 2040, 19, 19]               0
AdaptiveAvgPool2d-664            [2, 2040, 1, 1]               0
          Conv2d-665              [2, 85, 1, 1]         173,485
            SiLU-666              [2, 85, 1, 1]               0
          Conv2d-667            [2, 2040, 1, 1]         175,440
         Sigmoid-668            [2, 2040, 1, 1]               0
SqueezeExcitation-669          [2, 2040, 19, 19]               0
          Conv2d-670           [2, 340, 19, 19]         693,600
     BatchNorm2d-671           [2, 340, 19, 19]             680
InvertedResidualBlock-672           [2, 340, 19, 19]               0
          Conv2d-673          [2, 2040, 19, 19]       6,242,400
     BatchNorm2d-674          [2, 2040, 19, 19]           4,080
            SiLU-675          [2, 2040, 19, 19]               0
        CNNBlock-676          [2, 2040, 19, 19]               0
          Conv2d-677          [2, 2040, 19, 19]          51,000
     BatchNorm2d-678          [2, 2040, 19, 19]           4,080
            SiLU-679          [2, 2040, 19, 19]               0
        CNNBlock-680          [2, 2040, 19, 19]               0
AdaptiveAvgPool2d-681            [2, 2040, 1, 1]               0
          Conv2d-682              [2, 85, 1, 1]         173,485
            SiLU-683              [2, 85, 1, 1]               0
          Conv2d-684            [2, 2040, 1, 1]         175,440
         Sigmoid-685            [2, 2040, 1, 1]               0
SqueezeExcitation-686          [2, 2040, 19, 19]               0
          Conv2d-687           [2, 340, 19, 19]         693,600
     BatchNorm2d-688           [2, 340, 19, 19]             680
InvertedResidualBlock-689           [2, 340, 19, 19]               0
          Conv2d-690          [2, 2040, 19, 19]       6,242,400
     BatchNorm2d-691          [2, 2040, 19, 19]           4,080
            SiLU-692          [2, 2040, 19, 19]               0
        CNNBlock-693          [2, 2040, 19, 19]               0
          Conv2d-694          [2, 2040, 19, 19]          51,000
     BatchNorm2d-695          [2, 2040, 19, 19]           4,080
            SiLU-696          [2, 2040, 19, 19]               0
        CNNBlock-697          [2, 2040, 19, 19]               0
AdaptiveAvgPool2d-698            [2, 2040, 1, 1]               0
          Conv2d-699              [2, 85, 1, 1]         173,485
            SiLU-700              [2, 85, 1, 1]               0
          Conv2d-701            [2, 2040, 1, 1]         175,440
         Sigmoid-702            [2, 2040, 1, 1]               0
SqueezeExcitation-703          [2, 2040, 19, 19]               0
          Conv2d-704           [2, 340, 19, 19]         693,600
     BatchNorm2d-705           [2, 340, 19, 19]             680
InvertedResidualBlock-706           [2, 340, 19, 19]               0
          Conv2d-707          [2, 2040, 19, 19]       6,242,400
     BatchNorm2d-708          [2, 2040, 19, 19]           4,080
            SiLU-709          [2, 2040, 19, 19]               0
        CNNBlock-710          [2, 2040, 19, 19]               0
          Conv2d-711          [2, 2040, 19, 19]          51,000
     BatchNorm2d-712          [2, 2040, 19, 19]           4,080
            SiLU-713          [2, 2040, 19, 19]               0
        CNNBlock-714          [2, 2040, 19, 19]               0
AdaptiveAvgPool2d-715            [2, 2040, 1, 1]               0
          Conv2d-716              [2, 85, 1, 1]         173,485
            SiLU-717              [2, 85, 1, 1]               0
          Conv2d-718            [2, 2040, 1, 1]         175,440
         Sigmoid-719            [2, 2040, 1, 1]               0
SqueezeExcitation-720          [2, 2040, 19, 19]               0
          Conv2d-721           [2, 340, 19, 19]         693,600
     BatchNorm2d-722           [2, 340, 19, 19]             680
InvertedResidualBlock-723           [2, 340, 19, 19]               0
          Conv2d-724          [2, 2040, 19, 19]       6,242,400
     BatchNorm2d-725          [2, 2040, 19, 19]           4,080
            SiLU-726          [2, 2040, 19, 19]               0
        CNNBlock-727          [2, 2040, 19, 19]               0
          Conv2d-728          [2, 2040, 19, 19]          51,000
     BatchNorm2d-729          [2, 2040, 19, 19]           4,080
            SiLU-730          [2, 2040, 19, 19]               0
        CNNBlock-731          [2, 2040, 19, 19]               0
AdaptiveAvgPool2d-732            [2, 2040, 1, 1]               0
          Conv2d-733              [2, 85, 1, 1]         173,485
            SiLU-734              [2, 85, 1, 1]               0
          Conv2d-735            [2, 2040, 1, 1]         175,440
         Sigmoid-736            [2, 2040, 1, 1]               0
SqueezeExcitation-737          [2, 2040, 19, 19]               0
          Conv2d-738           [2, 340, 19, 19]         693,600
     BatchNorm2d-739           [2, 340, 19, 19]             680
InvertedResidualBlock-740           [2, 340, 19, 19]               0
          Conv2d-741          [2, 2040, 19, 19]       6,242,400
     BatchNorm2d-742          [2, 2040, 19, 19]           4,080
            SiLU-743          [2, 2040, 19, 19]               0
        CNNBlock-744          [2, 2040, 19, 19]               0
          Conv2d-745          [2, 2040, 19, 19]          51,000
     BatchNorm2d-746          [2, 2040, 19, 19]           4,080
            SiLU-747          [2, 2040, 19, 19]               0
        CNNBlock-748          [2, 2040, 19, 19]               0
AdaptiveAvgPool2d-749            [2, 2040, 1, 1]               0
          Conv2d-750              [2, 85, 1, 1]         173,485
            SiLU-751              [2, 85, 1, 1]               0
          Conv2d-752            [2, 2040, 1, 1]         175,440
         Sigmoid-753            [2, 2040, 1, 1]               0
SqueezeExcitation-754          [2, 2040, 19, 19]               0
          Conv2d-755           [2, 340, 19, 19]         693,600
     BatchNorm2d-756           [2, 340, 19, 19]             680
InvertedResidualBlock-757           [2, 340, 19, 19]               0
          Conv2d-758          [2, 2040, 19, 19]       6,242,400
     BatchNorm2d-759          [2, 2040, 19, 19]           4,080
            SiLU-760          [2, 2040, 19, 19]               0
        CNNBlock-761          [2, 2040, 19, 19]               0
          Conv2d-762          [2, 2040, 19, 19]          18,360
     BatchNorm2d-763          [2, 2040, 19, 19]           4,080
            SiLU-764          [2, 2040, 19, 19]               0
        CNNBlock-765          [2, 2040, 19, 19]               0
AdaptiveAvgPool2d-766            [2, 2040, 1, 1]               0
          Conv2d-767              [2, 85, 1, 1]         173,485
            SiLU-768              [2, 85, 1, 1]               0
          Conv2d-769            [2, 2040, 1, 1]         175,440
         Sigmoid-770            [2, 2040, 1, 1]               0
SqueezeExcitation-771          [2, 2040, 19, 19]               0
          Conv2d-772           [2, 568, 19, 19]       1,158,720
     BatchNorm2d-773           [2, 568, 19, 19]           1,136
InvertedResidualBlock-774           [2, 568, 19, 19]               0
          Conv2d-775          [2, 3408, 19, 19]      17,421,696
     BatchNorm2d-776          [2, 3408, 19, 19]           6,816
            SiLU-777          [2, 3408, 19, 19]               0
        CNNBlock-778          [2, 3408, 19, 19]               0
          Conv2d-779          [2, 3408, 19, 19]          30,672
     BatchNorm2d-780          [2, 3408, 19, 19]           6,816
            SiLU-781          [2, 3408, 19, 19]               0
        CNNBlock-782          [2, 3408, 19, 19]               0
AdaptiveAvgPool2d-783            [2, 3408, 1, 1]               0
          Conv2d-784             [2, 142, 1, 1]         484,078
            SiLU-785             [2, 142, 1, 1]               0
          Conv2d-786            [2, 3408, 1, 1]         487,344
         Sigmoid-787            [2, 3408, 1, 1]               0
SqueezeExcitation-788          [2, 3408, 19, 19]               0
          Conv2d-789           [2, 568, 19, 19]       1,935,744
     BatchNorm2d-790           [2, 568, 19, 19]           1,136
InvertedResidualBlock-791           [2, 568, 19, 19]               0
          Conv2d-792          [2, 3408, 19, 19]      17,421,696
     BatchNorm2d-793          [2, 3408, 19, 19]           6,816
            SiLU-794          [2, 3408, 19, 19]               0
        CNNBlock-795          [2, 3408, 19, 19]               0
          Conv2d-796          [2, 3408, 19, 19]          30,672
     BatchNorm2d-797          [2, 3408, 19, 19]           6,816
            SiLU-798          [2, 3408, 19, 19]               0
        CNNBlock-799          [2, 3408, 19, 19]               0
AdaptiveAvgPool2d-800            [2, 3408, 1, 1]               0
          Conv2d-801             [2, 142, 1, 1]         484,078
            SiLU-802             [2, 142, 1, 1]               0
          Conv2d-803            [2, 3408, 1, 1]         487,344
         Sigmoid-804            [2, 3408, 1, 1]               0
SqueezeExcitation-805          [2, 3408, 19, 19]               0
          Conv2d-806           [2, 568, 19, 19]       1,935,744
     BatchNorm2d-807           [2, 568, 19, 19]           1,136
InvertedResidualBlock-808           [2, 568, 19, 19]               0
          Conv2d-809          [2, 2268, 19, 19]       1,288,224
     BatchNorm2d-810          [2, 2268, 19, 19]           4,536
            SiLU-811          [2, 2268, 19, 19]               0
        CNNBlock-812          [2, 2268, 19, 19]               0
AdaptiveAvgPool2d-813            [2, 2268, 1, 1]               0
         Flatten-814                  [2, 2268]               0
         Dropout-815                  [2, 2268]               0
          Linear-816                     [2, 2]           4,538
    EfficientNet-817                     [2, 2]               0
================================================================
Total params: 168,615,809
Trainable params: 168,615,809
Non-trainable params: 0
----------------------------------------------------------------
Input size (MB): 8.24
Forward/backward pass size (MB): 14925.01
Params size (MB): 643.22
Estimated Total Size (MB): 15576.47
----------------------------------------------------------------
…
